ddpg/models/target_actor.pth (torch, 547518 bytes, 8 tensors)

fc1.weight f4 [256, 14]
0.04874419 -0.029630408 0.22242506 0.2719646 -0.027341187 0.05083038 0.16867587 0.0013050908
-0.038402647 0.2097142 -0.15620342 -0.25211596 -0.25608215 -0.13639575 0.008047969 -0.14485563
-0.15460655 0.17853047 -0.17066231 -0.1514201 -0.0951057 0.19018368 -0.041194435 -0.23201038
0.22717075 0.18704356 0.14090133 -0.13674566 0.111838385 -0.05845242 -0.17040442 0.01509088
-0.13043898 0.23214073 0.23529983 -0.18806252 -0.21601745 0.021043506 0.24012786 -0.10318069
0.063563295 0.11000804 0.23535943 -0.091363914 -0.18615514 -0.09624411 0.23036748 -0.097920515
-0.17235649 -0.20047535 0.19469364 0.19935776 0.030440671 -0.12719049 0.062402856 0.051050175
-0.11580214 -0.024450326 0.034915734 -0.095499046 0.14005038 0.052417375 -0.027702546 0.14148091
0.2639477 -0.16892917 -0.0011911255 -0.093412854 -0.102124244 -0.18445641 -0.1592433 -0.18488853
0.20215921 -0.25286105 0.037817772 0.25563273 0.12699679 0.11762756 0.23471867 0.24480689
0.18737707 -0.06265646 0.07666595 -0.07506731 0.16638106 -0.09448575 0.11241954 0.0037526244
0.030004807 -0.1403931 -0.09888165 -0.070710644 -0.075344965 0.16392234 0.13252519 0.024349744
0.22787043 0.071940154 0.23357126 0.17593284 0.07582927 0.1810589 -0.0021966689 0.2428399
-0.17816801 0.27282888 0.2338395 0.10414928 -0.17436817 0.15186715 0.008715895 -0.1087538
0.15438981 0.018512297 -0.16797891 0.18520148 -0.2259467 -0.2354198 0.24742952 -0.06806247
-0.16931795 0.124840595 -0.19711177 0.1258561 -0.030085484 0.21537334 0.23881654 0.09383755
0.19615397 0.048733015 0.25491747 -0.11177132 0.16755827 -0.25476843 0.06376662 -0.1426134
0.03408871 0.1037544 0.019188304 -0.13412113 0.043897524 0.2406792 0.14340317 0.26931217
0.15654618 0.2552155 0.087325655 -0.24130505 -0.18064165 -0.03784012 0.16664928 -0.11075058
-0.18758777 0.047723446 -0.06343879 -0.12428467 -0.25406396 0.114945315 -0.18628937 -0.108032234
-0.10117646 0.012351825 -0.06310976 0.13683613 -0.13771173 -0.23822586 0.090515025 0.045504205
-0.0615519 -0.0016588657 -0.12122623 0.03337717 -0.037381906 0.26651073 0.06078821 0.26269597
-0.13234636 -0.013368841 0.2610866 -0.27309707 -0.12898734 0.09410727 -0.059719034 -0.2220674
0.2064806 -0.038752828 0.16758807 0.054581795 0.011945764 -0.21518297 -0.12055567 0.15311886
-0.21151724 0.09185567 0.24896437 -0.15707803 0.26069918 -0.09204193 0.12677327 -0.23361595
-0.24105173 -0.23012903 0.22916046 0.031021824 0.037881102 0.19786762 -0.20293407 0.1876006
0.14853027 0.26071715 -0.23586607 -0.16592416 0.08070548 -0.14100471 -0.096877426 0.11090337
-0.085418284 0.02479194 -0.25381476 -0.074407905 0.059977002 0.25140882 -0.19897635 -0.18548772
0.012227622 -0.19512577 0.0120896995 -0.25873747 -0.19947188 0.11050639 0.14349881 -0.2396178
-0.16942628 0.06413617 -0.03760741 0.07830289 0.09739689 0.12828402 -0.23817576 0.25816596
0.047581885 0.05010394 -0.2589706 0.11627898 0.1612103 0.030219013 0.013625891 0.1645631
0.091967426 0.18690023 -0.078447565 0.15365264 -0.21174076 -0.10128077 0.13645914 0.197659
00000000: fda7 473d 78bb f2bc 65c3 633e f23e 8b3e
00000010: a0fa dfbc 8433 503d 5eb9 2c3e 950f ab3a
00000020: 184c 1dbd 52bf 563e caf3 1fbe 5815 81be
00000030: 331d 83be 54ab 0bbe a1db 033c 0955 14be
00000040: 2e51 1ebe b1d0 363e 1ac2 2ebe df0d 1bbe
00000050: c7c6 c2bd 83bf 423e 7fbb 28bd 2194 6dbe
00000060: 739f 683e 5988 3f3e 7048 103e 0e07 0cbe
00000070: 860b e53d ce6b 6fbd 7f7e 2ebe bd3f 773c
00000080: cc91 05be 4db6 6d3e 70f2 703e 7693 40be
00000090: ae33 5dbe 6e63 ac3c 14e4 753e 6650 d3bd
000000a0: 792d 823d e54b e13d 1002 713e 011d bbbd
000000b0: 749f 3ebe a21b c5bd 74e5 6b3e 8d8a c8bd
000000c0: 387e 30be 6949 4dbe c55d 473e 7124 4c3e
000000d0: b75e f93c 393e 02be 239a 7f3d fd19 513d
000000e0: ac29 edbd 0d4c c8bc cd03 0f3d 0195 c3bd
000000f0: 5e69 0f3e 9ab3 563d 73f0 e2bc 5fe0 103e
00000100: 2724 873e c5fb 2cbe 8a1f 9cba 3d4f bfbd
00000110: 8426 d1bd 24e2 3cbe ad10 23be 6b53 3dbe
00000120: d302 4f3e 0177 81be cfe6 1a3d 4be2 823e
00000130: 720b 023e b8e6 f03d 175a 703e a8ae 7a3e
00000140: c6df 3f3e 0852 80bd 0a03 9d3d e4bc 99bd
00000150: cc5f 2a3e bf81 c1bd 373c e63d 97ee 753b
00000160: a4cc f53c 35c3 0fbe 7682 cabd bed0 90bd
00000170: 764e 9abd 42db 273e afb4 073e 1d79 c73c
00000180: de56 693e 5c55 933d 4e2d 6f3e bd27 343e
00000190: 604c 9b3d 8167 393e fdf5 0fbb 06ab 783e
000001a0: ad71 36be 3ab0 8b3e 9f73 6f3e 384c d53d
000001b0: 928d 32be 1083 1b3e 1dcd 0e3c 50ba debd
000001c0: 5d18 1e3e 1aa7 973c aa02 2cbe 75a5 3d3e
000001d0: 925e 67be e311 71be 2a5e 7d3e 5664 8bbd
000001e0: af61 2dbe 6dac ff3d abd7 49be 6ce0 003e
000001f0: d575 f6bc d48a 5c3e 538c 743e e72d c03d
00000200: 96dc 483e 459c 473d 8b84 823e 5de8 e4bd
00000210: 6594 2b3e 0271 82be 1398 823d 3f09 12be
00000220: 9aa0 0b3d 307d d43d ca30 9d3c 0d57 09be
00000230: e4cd 333d 9c74 763e 48d8 123e 49e3 893e
00000240: a44d 203e 9bab 823e cbd7 b23d ac18 77be
00000250: 20fa 38be 3efe 1abd 1ca6 2a3e 33d1 e2bd
00000260: 0217 40be a979 433d 32ec 81bd f688 febd
00000270: ac14 82be 7368 eb3d a4c2 3ebe 0140 ddbd
00000280: 9b35 cfbd 4f5f 4a3c b13f 81bd c51e 0c3e
00000290: 4e04 0dbe 7bf1 73be f15f b93d 9e62 3a3d
000002a0: d81d 7cbd 4c6e d9ba 7545 f8bd 80b6 083d
000002b0: c51d 19bd 1874 883e 0ffd 783d 1680 863e
000002c0: ce85 07be fc08 5bbc 25ad 853e 61d3 8bbe
000002d0: 4215 04be 50bb c03d f29b 74bd a365 63be
000002e0: a76f 533e 49bb 1ebd 359c 2b3e 2991 5f3d
000002f0: 2ab8 433c ed58 5cbe e4e5 f6bd 31cb 1c3e
00000300: fa97 58be d31e bc3d 84f0 7e3e 10d9 20be
00000310: 5d7a 853e 7b80 bcbd dad0 013e 0539 6fbe
00000320: 44d6 76be f2a6 6bbe 0aa9 6a3e 7b21 fe3c
00000330: 3729 1b3d cf9d 4a3e f3cd 4fbe 5f1a 403e
00000340: 5218 183e b87c 853e e086 71be 06e8 29be
00000350: ea48 a53d 8a63 10be ac67 c6bd 4e21 e33d
00000360: c8ef aebd 7718 cb3c 02f4 81be 2c63 98bd
00000370: 72aa 753d a8b8 803e 75c0 4bbe 7ef0 3dbe
00000380: 5d56 483c 0dcf 47be e013 463c 3d79 84be
00000390: 5b42 4cbe 2d51 e23d 5af1 123e 5e5e 75be
000003a0: 157e 2dbe d359 833d 3a0a 1abd 445d a03d
000003b0: 0578 c73d e35c 033e 59e4 73be 542e 843e
000003c0: 39e5 423d ca39 4d3d cb97 84be ad23 ee3d
000003d0: 5014 253e dd8d f73c 213f 5f3c 3b83 283e
000003e0: 6b59 bc3d c662 3f3e 1ea9 a0bd 1e57 1d3e
000003f0: 92d2 58be 4b6c cfbd f2bb 0b3e 1f67 4a3e

fc1.bias f4 [256]
0.008471886 -0.07349808 0.076857455 0.2207859 -0.07013694 0.19454463 0.2031874 -0.14970644
-0.02124882 0.0082483655 -0.21670292 0.010126708 -0.00391696 0.24470258 0.16222359 0.17401887
-0.11735464 0.16730495 0.08308622 -0.16647045 -0.062308144 0.016152136 0.043346174 -0.26275706
-0.19163884 0.14310515 0.06805243 -0.14654304 0.23822048 -0.08966516 -0.24364457 0.26549742
0.19715236 0.120130986 -0.23112743 -0.087169185 0.09343521 0.0141036995 -0.13401766 0.19395353
-0.10601195 0.17579871 -0.18343714 -0.005326535 0.10411948 0.09225801 -0.23172349 0.14446117
-0.13626541 0.25390783 -0.25557312 -0.15294003 -0.047265228 0.14978096 -0.054980714 -0.10065779
0.108433425 -0.0075552184 0.004802516 0.23264739 -0.20780681 -0.17073224 -0.18061185 0.18973148
-0.10467827 0.04936632 0.053195246 -0.117135815 -0.24239285 -0.06343133 0.16113599 -0.06025921
0.2608482 0.02451552 0.07499479 0.25265247 -0.14213654 -0.11425985 0.09142353 -0.19978988
-0.23407792 0.07248391 -0.24564275 0.06317057 0.023895252 -0.08064453 -0.06729078 -0.2000134
0.0050801975 -0.231798 -0.15325296 0.14973626 0.18317133 -0.14365649 0.009311949 0.11244934
-0.007129599 -0.09485828 0.13801427 -0.2594778 -0.03360814 -0.23935297 -0.108952515 0.22550963
-0.06594966 0.023612127 -0.056641903 0.21717978 0.0944038 0.09770445 0.052916568 -0.19079001
-0.09713819 0.011288261 0.005933766 -0.045810346 -0.031942915 -0.2546194 -0.24237795 0.23238407
0.18374299 -0.010331759 -0.21445283 0.21346934 0.20238273 0.19338232 -0.21829736 0.21069995
-0.056433287 0.26066938 0.22011535 0.013393989 0.1336218 0.10899223 0.14319845 0.10780402
0.0016279147 0.15222478 0.058287337 0.22604609 -0.15793198 0.031540576 0.08613355 -0.024481991
-0.04850949 0.16800532 -0.2501958 -0.095350035 0.02750883 -0.2076876 0.04995865 -0.027782641
-0.024943933 -0.1613593 0.1188253 -0.060564686 -0.2219184 -0.25644016 -0.17457679 0.008486426
0.05151957 -0.07987498 -0.1170017 -0.13818769 0.26004353 0.096500725 -0.059808444 0.14870806
0.16836295 -0.24048549 -0.18431255 -0.040704016 -0.011622589 -0.07933108 0.10517748 0.0389242
-0.18761663 -0.0018778297 0.17578381 -0.15937741 -0.21688174 0.23310933 0.23370537 0.26671934
-0.21818514 0.18132712 0.16092718 -0.05306558 0.2620105 0.19731627 0.16654497 -0.13091584
0.24330185 -0.21262719 -0.12865083 -0.22940864 -0.188897 -0.08531397 -0.13911158 0.23035257
0.04970905 -0.26354855 0.1711793 -0.26520336 -0.045141786 -0.23438345 0.2338544 0.24728051
0.24522412 -0.016694171 0.20831347 -0.087459765 -0.19222 0.23877184 -0.08340817 0.12535764
0.18712375 0.10391831 -0.19089377 0.16302826 -0.14854415 -0.005377293 -0.16509953 -0.1048869
0.03247936 -0.12707128 -0.10233131 -0.049880415 -0.017003374 -0.17268433 0.16110599 -0.035090823
-0.18237352 0.10713701 -0.23328812 0.01789982 0.003810439 0.038398925 0.16826376 0.17961347
-0.26308337 0.03274014 -0.26514784 -0.20367163 -0.22843029 0.23643233 0.023036562 0.0019548133
-0.08524965 0.22913066 -0.24205014 0.14905079 -0.25491747 0.25384456 0.0054764803 -0.079539694
00000000: aacd 0a3c 2986 96bd 7167 9d3d b315 623e
00000010: f5a3 8fbd b536 473e 5c10 503e a54c 19be
00000020: 0112 aebc 2724 073c 5fe7 5dbe 7eea 253c
00000030: d859 80bb 5093 7a3e f11d 263e 0132 323e
00000040: a157 f0bd fd51 2b3e 1c29 aa3d 3b77 2abe
00000050: d336 7fbd 7c51 843c c28b 313d 1888 86be
00000060: f93c 44be 288a 123e 135f 8b3d 610f 16be
00000070: 12f0 733e 5ea2 b7bd f67d 79be 47ef 873e
00000080: 4fe2 493e 3c07 f63d abac 6cbe c285 b2bd
00000090: f65a bf3d 3413 673c ed3b 09be c19b 463e
000000a0: cb1c d9bd 9404 343e f2d6 3bbe 378a aebb
000000b0: 983c d53d c4f1 bc3d ec48 6dbe a1ed 133e
000000c0: 2989 0bbe 3500 823e 7bda 82be 509c 1cbe
000000d0: 2f99 41bd 2e60 193e 7533 61bd ac25 cebd
000000e0: 5812 de3d c491 f7bb 6d5e 9d3b 1e3b 6e3e
000000f0: 4fcb 54be 6fd4 2ebe 50f2 38be f848 423e
00000100: 9061 d6bd 5734 4a3d 42e3 593d e7e4 efbd
00000110: d535 78be 49e8 81bd d500 253e 5dd2 76bd
00000120: e58d 853e c6d4 c83c de96 993d aa5b 813e
00000130: 3e8c 11be 1101 eabd 423c bb3d b895 4cbe
00000140: 1fb2 6fbe 7272 943d c689 7bbe 925f 813d
00000150: fabf c33c f628 a5bd c0cf 89bd 50d0 4cbe
00000160: c977 a63b 745c 6dbe 58ee 1cbe 7654 193e
00000170: 4491 3b3e b01a 13be 2591 183c d74b e63d
00000180: 699f e9bb 0f45 c2bd 9d53 0d3e 46da 84be
00000190: b0a8 09bd f218 75be 7f22 dfbd ffeb 663e
000001a0: 9e10 87bd 386e c13c 5701 68bd 6064 5e3e
000001b0: c856 c13d 4519 c83d 0bbf 583d 755e 43be
000001c0: 63f0 c6bd 66f2 383c 0970 c23b a1a3 3bbd
000001d0: 93d6 02bd 795d 82be ed31 78be 17f6 6d3e
000001e0: 1f27 3c3e 8a46 29bc 8699 5bbe b597 5a3e
000001f0: 6b3d 4f3e 0406 463e 5889 5fbe bac1 573e
00000200: 9726 67bd 7576 853e eb65 613e 7672 5b3c
00000210: 27d4 083e 5137 df3d 9da2 123e 5bc8 dc3d
00000220: c15f d53a d0e0 1b3e b4be 6e3d a078 673e
00000230: ecb8 21be b130 013d c966 b03d 758e c8bc
00000240: e3b1 46bd 9609 2c3e aa19 80be e146 c3bd
00000250: 335a e13c 0fac 54be 71a1 4c3d 6c98 e3bc
00000260: 3857 ccbc 5f3b 25be ae5a f33d ad12 78bd
00000270: 943e 63be 204c 83be 42c4 32be a70a 0b3c
00000280: 2f06 533d 7e95 a3bd 969e efbd 1381 0dbe
00000290: 6d24 853e 2ca2 c53d b3f9 74bd ed46 183e
000002a0: 5667 2c3e d441 76be 6ebc 3cbe 41b9 26bd
000002b0: ac6c 3ebc 5578 a2bd 4a67 d73d fb6e 1f3d
000002c0: 931e 40be 8221 f6ba ac00 343e d533 23be
000002d0: 3f16 5ebe 36b4 6e3e 7650 6f3e 708f 883e
000002e0: ed6b 5fbe d1ad 393e 18ca 243e 4b5b 59bd
000002f0: 3e26 863e 470d 4a3e c48a 2a3e cd0e 06be
00000300: 1f24 793e f1ba 59be 0bbd 03be 19ea 6abe
00000310: 376e 41be 17b9 aebd 4473 0ebe 8be1 6b3e
00000320: b89b 4b3d d6ef 86be a049 2f3e bcc8 87be
00000330: 98e6 38bd 3702 70be 8777 6f3e 1a37 7d3e
00000340: 081c 7b3e 37c2 88bc 2050 553e 1b1e b3bd
00000350: 52d5 44be 9b80 743e e7d1 aabd c15d 003e
00000360: 5e9d 3f3e 1fd3 d43d a879 43be e1f0 263e
00000370: f51b 18be 0134 b0bb da0f 29be f1ce d6bd
00000380: 1409 053d f91e 02be 1493 d1bd 684f 4cbd
00000390: a94a 8bbc 29d4 30be f8f8 243e 65bb 0fbd
000003a0: 20c0 3abe a66a db3d 15e3 6ebe a5a2 923c
000003b0: 8fb8 793b 3148 1d3d 564d 2c3e 98ec 373e
000003c0: ddb2 86be 861a 063d 75c1 87be 4c8f 50be
000003d0: a1e9 69be 511b 723e 2cb7 bc3c 531c 003b
000003e0: 5e97 aebd 3aa1 6a3e fedb 77be c5a0 183e
000003f0: 8b84 82be eaf7 813e 0c74 b33b b5e5 a2bd

fc2.weight f4 [256, 256]
-0.009955501 0.04048139 0.017819224 0.03299346 0.015770288 0.042761292 -0.019422984 -0.018227149
-0.008265823 0.003939312 -0.057863817 0.046569973 0.029077195 -0.06062802 0.014011462 -0.013604797
-0.022855882 -0.059585243 0.0043644663 0.06196239 -0.05237727 0.034770444 -0.038629897 -0.0033369288
-0.043066774 0.008908681 0.043234415 -0.037063085 0.054031417 -0.018724483 -0.02083675 -0.0014163853
-0.052815985 -0.03565415 0.023001168 0.027752837 0.040533543 -0.054020748 0.020102352 -0.022418154
0.010921294 -0.015947243 0.015332416 0.05585639 0.0007631413 -0.055524684 -0.0020836964 -0.051905453
2.5562942e-05 0.041278847 0.011470102 0.020695185 -0.06172704 -0.0022800236 -0.000999093 0.029220622
-0.034314677 0.04944154 0.024730705 -0.05882123 -0.024956973 0.054328468 -0.024483856 -0.050137468
-0.0205648 0.027987536 0.045534186 -0.045270428 -0.04282463 0.0145451175 0.051471137 0.046311542
-0.008561313 0.049545135 0.032453284 0.042966187 -0.040596876 -0.02020663 -0.03024323 -0.01585411
-0.035504337 -0.014402624 -0.04189366 -0.061797775 0.0077512646 -0.031133585 0.0115483925 -0.05261109
-0.05214915 0.0059742783 -0.050769188 -0.009604388 0.04666461 -0.03374975 0.046155076 0.027228855
-0.0070746504 0.0031212512 0.03900243 -0.05429671 0.01279607 -0.015085292 -0.00447426 0.026059672
0.028665118 0.061063882 0.054060243 -0.014593547 0.0052995263 0.011234223 -0.026082026 0.03101366
0.0038011256 -0.032021146 -0.04933652 -0.04283218 -0.05456814 -0.0026648976 -0.02539935 0.04263836
-0.03872733 -0.026846439 -0.04321225 0.010274209 -0.014401287 -0.009707767 0.039982192 0.0124945715
-0.027605688 0.040634125 0.049489256 0.055881936 -0.020699121 -0.054276317 0.007163696 -0.062485777
-0.038968902 -0.0064990856 0.044636384 -0.01815078 0.028324677 0.027018946 -0.013954446 -0.02559028
-0.034915734 -0.00020433962 -0.028690375 0.045627363 -0.017238073 0.03496416 -0.061610386 -0.013724612
-0.024355331 0.010586945 0.032581456 -0.019420855 -0.05355587 -0.059090868 0.031340227 0.012625411
0.0053358483 -0.051370554 -0.04865851 0.022955224 -0.05210072 -0.0031491965 -0.050720684 0.053657908
0.055569008 0.03410028 -0.036938988 -0.033490106 0.038316965 0.040026896 0.011718516 -0.04180157
-0.036402144 -0.040899746 -0.0031810896 -0.054387055 0.05815439 0.049858063 -0.045546837 -0.001395081
-0.024729326 -0.036450572 0.023940027 -0.038885318 0.0042010173 0.008381545 0.018202933 -0.051191736
-0.056410935 0.018564293 0.049442023 0.042544 -0.028922595 -0.044977874 -0.031021824 0.05105322
-0.020633718 0.03347878 -0.02043255 -0.045278363 -0.04954514 -0.010499798 -0.05710385 0.04253628
-0.0066178306 -0.004333267 0.030956909 -0.01951239 -0.001047926 -0.043849096 0.056676142 -0.03986545
0.043849092 -0.047759615 -0.019223677 -0.04650526 -0.044448875 0.033546597 0.005041081 0.054558054
-0.025551165 -0.061827578 0.04715719 0.0069861733 0.031200638 -0.033973224 -0.028747505 0.01986634
-0.008598305 -0.04146719 0.0277547 0.041077442 -0.054902174 0.043055594 -0.040904157 0.04905339
0.031749193 -0.06051626 0.05178637 0.021897137 -0.038764298 -0.034733765 0.04640095 0.012360206
0.030386655 0.019657677 -0.02321586 -0.0029857424 -0.02065607 -0.014798544 0.03727387 0.011320345
00000000: 661c 23bc d0cf 253d 9ff9 913c 2624 073d
00000010: b130 813c 7726 2f3d f31c 9fbc 1a51 95bc
00000020: 606d 07bc 5815 813b 9c02 6dbd 28c0 3e3d
00000030: 4c33 ee3c 1655 78bd 5590 653c a8e6 5ebc
00000040: 423c bbbc a80f 74bd cc03 8f3b 46cc 7d3d
00000050: 8c89 56bd 746b 0e3d 623a 1ebd 60b0 5abb
00000060: c966 30bd b7f5 113c 9216 313d 76cf 17bd
00000070: 0c50 5d3d 1664 99bc d5b1 aabc 01a6 b9ba
00000080: 9355 58bd 160a 12bd f26c bc3c eb59 e33c
00000090: 8006 263d dc44 5dbd b0ad a43c 47a6 b7bc
000000a0: 3aef 323c cba3 82bc d034 7b3c acc9 643d
000000b0: 8c0d 483a da6d 63bd a08e 08bb d09a 54bd
000000c0: 0070 d637 0214 293d 18ed 3b3c f388 a93c
000000d0: 7ed5 7cbd 736c 15bb 00f4 82ba 1660 ef3c
000000e0: 8c8d 0cbd 3683 4a3d 0c98 ca3c 88ee 70bd
000000f0: 9172 ccbc 8787 5e3d 5e92 c8bc f25c 4dbd
00000100: 8377 a8bc 1e46 e53c 0e82 3a3d 7c6d 39bd
00000110: e168 2fbd a54e 6e3c 66d3 523d 2cb1 3d3d
00000120: c044 0cbc d7ef 4a3d bced 043d 50fd 2f3d
00000130: e948 26bd 6088 a5bc a6c0 f7bc 7ae0 81bc
00000140: ff6c 11bd fcf8 6bbc b098 2bbd aa1f 7dbd
00000150: 52fe fd3b dc0b ffbc 7835 3d3c ba7e 57bd
00000160: 599a 55bd e1c3 c33b 5af3 4fbd b95b 1dbc
00000170: 6423 3f3d 2e3d 0abd 1b0d 3d3d 0c0f df3c
00000180: 78d2 e7bb e88d 4c3b 03c1 1f3d 3a66 5ebd
00000190: 9ca6 513c 4d28 77bc d09c 92bb 187b d53c
000001a0: 1cd3 ea3c 1f1e 7a3d 466e 5d3d c619 6fbc
000001b0: a6a7 ad3b bf0f 383c f9a9 d5bc 5c10 fe3c
000001c0: 4e1c 793b 9b28 03bd 1715 4abd cc70 2fbd
000001d0: d882 5fbd 90a5 2ebb 4c12 d0bc 90a5 2e3d
000001e0: 8ca0 1ebd 10ed dbbc 54ff 30bd 2855 283c
000001f0: 60f3 6bbc 530d 1fbc 5ec4 233d 08b6 4c3c
00000200: 5325 e2bc f86f 263d 3fb5 4a3d 75e4 643d
00000210: 3491 a9bc d850 5ebd 70bd ea3b 16f1 7fbd
00000220: db9d 1fbd 48f6 d4bb a4d4 363d f2b0 94bc
00000230: 2709 e83c d656 dd3c 30a1 64bc b5a2 d1bc
00000240: cd03 0fbd 0044 56b9 1408 ebbc c2e3 3a3d
00000250: dc36 8dbc 9436 0f3d 2c5b 7cbd 32dd 60bc
00000260: d584 c7bc de74 2d3c 2274 053d 7c18 9fbc
00000270: 665d 5bbd 4409 72bd 9c5e 003d d0da 4e3c
00000280: 57d8 ae3b ee69 52bd 254e 47bd 980c bc3c
00000290: 9167 55bd c062 4ebb 7ec0 4fbd 65c8 5b3d
000002a0: 549c 633d bcac 0b3d 564d 17bd ec2c 09bd
000002b0: 40f2 1c3d 3ef3 233d 05ff 3f3c 2038 2bbd
000002c0: 6a1a 15bd 7e86 27bd d479 50bb f6c4 5ebd
000002d0: 4c33 6e3d f837 4c3d 528f 3abd 27db b6ba
000002e0: 2895 cabc 324d 15bd e01d c43c 3646 1fbd
000002f0: b0a8 893b bf52 093c 511e 953c 6dae 51bd
00000300: 270f 67bd 2514 983c b883 4a3d 9e42 2e3d
00000310: 14ef ecbc b83a 38bd 7b21 febc 2e1d 513d
00000320: 0b08 a9bc 0c21 093d 2a62 a7bc ce75 39bd
00000330: d8ef 4abd 5807 2cbc bae5 69bd 863a 2e3d
00000340: 63da d8bb 14fe 8dbb 5899 fd3c 73d8 9fbc
00000350: 905a 89ba 1c9b 33bd 3e25 683d f449 23bd
00000360: 1b9b 333d 969f 43bd f97a 9dbc 4d7c 3ebd
00000370: 0610 36bd 2868 093d a72f a53b 4478 5f3d
00000380: ad50 d1bc ea3e 7dbd e627 413d 45ec e43b
00000390: 7b98 ff3c 8227 0bbd e37f ebbc bcbe a23c
000003a0: e8df 0cbc 80d9 29bd d35d e33c d240 283d
000003b0: 1ae1 60bd 105b 303d 1e8b 27bd 35ec 483d
000003c0: 710b 023d e6df 77bd f21d 543d a061 b33c
000003d0: 50c7 1ebd fe44 0ebd ec0e 3e3d 7682 4a3c
000003e0: 6fed f83c 2309 a13c 302f bebc 72ac 43bb
000003f0: eb36 a9bc 9875 72bc 7cac 183d f878 393c

fc2.bias f4 [256]
0.046978377 0.023023523 -0.014241502 -0.06008412 0.05875045 -0.046147626 0.020205304 0.0328817
0.0543918 0.054578066 -0.01790118 0.050696265 -0.038819887 0.029187094 0.03137294 0.041174304
-0.0047225645 0.0040259263 0.05857373 -0.017416887 0.0137199545 -0.020736165 -0.0019351387 -0.027790094
-0.041977108 -0.018772911 -0.05039824 -0.024780018 -0.0294013 0.051281147 0.015229648 -0.033362266
0.034019776 -0.04185976 0.03109108 0.03466241 0.015874598 0.046058223 0.02889838 0.040537268
0.024102008 0.012715045 -0.003719168 -0.0530246 -0.045749016 -0.05214542 0.057357173 0.003327542
0.05410495 0.034502223 -0.042172693 0.043177024 0.067052364 0.036562335 -0.03160763 0.028864853
-0.03697212 0.06566654 -0.041610166 -0.04956004 0.01266289 -0.032196235 0.024120634 0.04029512
0.054462586 -0.016137233 -0.0030413896 0.014946523 -0.01547459 0.0032644442 0.064496785 -0.01649114
0.009006471 0.0052357297 0.029619234 -0.04489964 -0.030928688 0.041293513 -0.00071482843 -0.012028652
0.0657932 0.025685277 0.071835704 -0.01344428 -0.038290888 -0.03301581 -0.04155801 0.016519083
0.055691943 0.053736143 -0.03347775 0.03196154 -0.0068003726 -0.04070118 -0.055349212 0.031298432
-0.0026569809 -0.036033332 -0.050394516 0.031685866 -0.011370198 -0.017744716 0.021511035 0.00014701922
0.024956971 0.047879912 -0.024658944 0.0336901 -0.00723484 -0.042612284 -0.010346661 0.057267763
0.009701246 -0.033097766 -0.0403361 0.0570815 0.025325783 0.056019776 0.03189076 -0.03851441
0.050115112 0.030926827 0.04329029 -0.02313528 -0.011950419 -0.0031319617 0.022425607 -0.010828161
0.034725744 0.019724736 -0.02504638 0.031215541 -0.008365712 0.023627026 0.009214159 -0.017642269
0.05730502 0.0023498733 0.024001423 -0.037350163 0.047067784 -0.022114538 -0.0026248503 0.0581842
0.024923444 0.058664765 0.0036636367 0.021511033 -0.06276823 -0.011457744 -0.057524808 0.03113172
0.01369481 -0.034982786 -0.04354362 0.022889411 -0.051813867 0.031808797 0.03409724 0.04514551
-0.0003182435 0.0021866572 -0.029397577 0.022956466 -0.0463935 -0.007691659 0.04898261 -0.051188007
-0.056839406 0.041196655 -0.027896263 0.045514323 -0.04996237 0.008993432 0.001815462 -0.053836957
0.037214268 -0.012170214 0.042444643 0.025342546 -0.03772836 -0.013999355 -0.001287279 0.002520075
-0.0032695662 0.015703233 0.0358806 -0.024377683 -0.02683268 0.02135457 0.016144685 -0.016167035
-0.04207211 0.026031733 0.05385908 0.06361015 0.023068225 -0.048356757 -0.02646387 -0.043983206
0.02021648 -0.0047560926 -0.04767874 0.011856787 -0.006323994 0.028190566 0.010390434 0.007832059
-0.0032441877 -0.045830976 0.014496689 0.04814441 0.056369957 -0.016479965 0.034688488 0.06543557
-0.0079903845 0.06455639 0.022915488 -0.033868913 0.015363761 0.013822403 0.055114515 -0.05957199
0.05621722 -0.015523951 -0.0020583658 -0.0029352172 0.043577146 0.012319228 -0.051143307 -0.047314078
-0.0008033634 -0.05419436 0.038022663 -0.048274793 -0.06453404 0.022785101 -0.029075332 0.04715719
0.03512063 -0.004300204 -0.034513395 0.04400556 -0.06770802 -0.012534366 -0.012266142 0.050339006
0.02739148 0.047663838 0.0516574 -0.03769856 -0.04751855 -0.008874221 -0.008244638 -0.05422789
00000000: 666c 403d d49b bc3c 3055 69bc c41a 76bd
00000010: 50a4 703d 4b05 3dbd 9885 a53c f6ae 063d
00000020: f0c9 5e3d 408d 5f3d 7fa5 92bc e3a6 4f3d
00000030: 9a01 1fbd c619 ef3c e980 003d 63a6 283d
00000040: bebf 9abb ebeb 833b 02eb 6f3d dcad 8ebc
00000050: a9c9 603c e4de a9bc 7ba4 fdba 0da8 e3bc
00000060: 30f0 2bbd a6c9 99bc 636e 4ebd 77ff cabc
00000070: ffda f0bc 2e0c 523d c685 793c dfa6 08bd
00000080: 5258 0b3d 2475 2bbd b8b2 fe3c 2cfa 0d3d
00000090: 720b 823c 8ca7 3c3d 4cbc ec3c 680a 263d
000000a0: 9371 c53c c452 503c 49bd 73bb 5330 59bd
000000b0: 5263 3bbd 7096 55bd 5bef 6a3d e412 5a3b
000000c0: 279d 5d3d 3452 0d3d 46bd 2cbd 64da 303d
000000d0: c052 893d 63c2 153d 0177 01bd fc75 ec3c
000000e0: 1470 17bd 2e7c 863d 6c6f 2abd 78ff 4abd
000000f0: 0378 4f3c 33e0 03bd a398 c53c 7f0c 253d
00000100: 2914 5f3d 3b32 84bc 0d52 47bb 43e2 743c
00000110: 2289 7dbc 49f0 553b e416 843d 6d18 87bc
00000120: e18f 133c 7c90 ab3b 09a4 f23c afe8 37bd
00000130: 295e fdbc 6323 293d 5363 3bba d313 45bc
00000140: 96be 863d ee69 d23c 991e 933d 6645 5cbc
00000150: e8d6 1cbd 963b 07bd bb38 2abd 0753 873c
00000160: 3c1d 643d 6e1a 5c3d f71f 09bd 1bea 023d
00000170: a9d5 debb 48b6 26bd dbb5 62bd c932 003d
00000180: be20 2ebb b097 13bd 7b6a 4ebd 0ac9 013d
00000190: 114a 3abc 5e5d 91bc e937 b03c 2c29 1a39
000001a0: 9072 cc3c ba1d 443d 8e01 cabc a1fe 093d
000001b0: 3d12 edbb 388a 2ebd 0b85 29bc 9a91 6a3d
000001c0: faf1 1e3c 8691 07bd 7737 25bd 4ace 693d
000001d0: 0478 cf3c fe74 653d e39f 023d 49c1 1dbd
000001e0: 8145 4d3d 425a fd3c 2951 313d 3386 bdbc
000001f0: b1cb 43bc 9941 4dbb e8b5 b73c 9968 31bc
00000200: 953c 0e3d c595 a13c 112e cdbc bcb7 ff3c
00000210: 5710 09bc 778d c13c fcf6 163c 8586 90bc
00000220: abb8 6a3d 5500 1a3b a29e c43c 7cfc 18bd
00000230: 26ca 403d 8c29 b5bc ae05 2cbb 8e52 6e3d
00000240: 402c cc3c 774a 703d a019 703b e837 b03c
00000250: a18c 80bd 43b9 3bbc 229f 6bbd f307 ff3c
00000260: 3260 603c 1c4a 0fbd cb5a 32bd 9382 bb3c
00000270: c73a 54bd f149 023d 8ca9 0b3d 80ea 383d
00000280: ebd9 a6b9 054e 0f3b 30d3 f0bc 330f bc3c
00000290: 1c07 3ebd 500a fcbb fda1 483d 84aa 51bd
000002a0: 70d0 68bd d3bd 283d b486 e4bc 3a6d 3a3d
000002b0: 58a5 4cbd 3059 133c ccf4 ed3a 2484 5cbd
000002c0: fd6d 183d 9465 47bc 6fda 2d3d 2c9b cf3c
000002d0: 0e89 1abd 8d5d 65bc eab9 a8ba d827 253b
000002e0: 3846 56bb 11a4 803c 89f7 123d b5b3 c7bc
000002f0: 35d0 dbbc c7ef ae3c dc41 843c bb70 84bc
00000300: ce53 2cbd 8040 d53c 579b 5c3d 0a46 823d
00000310: 93f9 bc3c bc11 46bd c2ca d8bc bc27 34bd
00000320: 089d a53c ffd8 9bbb c84a 43bd f842 423c
00000330: 8239 cfbb e7ef e63c a43c 2a3c 0952 003c
00000340: 709c 54bb 43b9 3bbd 8583 6d3c 1333 453d
00000350: 2fe4 663d fe00 87bc 8415 0e3d 1603 863d
00000360: 1aea 02bc 2436 843d 43b9 bb3c 21ba 0abd
00000370: 49b8 7b3c 5c77 623c c2bf 613d c201 74bd
00000380: 0744 663d 2b58 7ebc a6e5 06bb c65c 40bb
00000390: f37d 323d 96d6 493c a57b 51bd 68cc 41bd
000003a0: ce98 52ba e8fa 5dbd a7bd 1b3d cabb 45bd
000003b0: 6c2a 84bd d2a7 ba3c 642f eebc e627 413d
000003c0: a6da 0f3d bae8 8cbb eb5d 0dbd 2d3f 343d
000003d0: 81aa 8abd f15c 4dbc eef7 48bc 4630 4e3d
000003e0: 1964 e03c 283b 433d b696 533d ce69 1abd
000003f0: d0a2 42bd 2e65 11bc 8514 07bc 101e 5ebd

fc3.weight f4 [256, 256]
0.035955105 -0.016437123 -0.020751065 0.055613715 0.022172283 0.01174832 0.018601546 0.0031226485
-0.027980084 0.008727071 0.05769618 -0.035027493 0.049466904 0.06622534 0.049317893 -0.010040252
-0.017927257 0.057714805 0.023971803 0.05826243 0.03209991 -0.055744097 -0.043152455 -0.01486829
-0.00096520036 0.016146548 0.016638294 0.01513931 -0.007757318 -0.047789313 0.032557596 0.027931657
-0.0075221565 0.048453614 0.008597615 0.025005557 -0.01697916 0.075367324 -0.0032874944 0.03487103
-0.013091303 0.011707341 0.019314948 -0.001540602 -0.02273667 -0.019357787 -0.03906576 0.038436178
-0.041964073 0.0033971593 0.004788224 0.057924792 -0.026003791 0.03520631 -0.03762033 0.06752921
0.047481302 -0.016535845 0.053389687 -0.04512688 -0.024113182 0.04873674 -0.0037242903 0.033563435
0.06344624 -0.04806245 -0.027445497 0.008194348 0.011044231 -0.037799142 0.015818719 0.07492028
0.059719037 -0.03438301 -0.05356105 0.063803874 0.056731317 0.06565164 -0.01969307 0.00586345
0.024789333 0.058210276 -0.0031312632 -0.038316965 -0.03099202 0.017046217 0.056999538 -0.048665956
0.043729886 0.0023428886 0.03123603 0.06808801 0.024994226 -0.01713935 0.03614882 -0.004760749
0.001405675 0.035843343 -0.03314992 0.049310442 0.022496387 -0.039978467 0.049101822 0.06772293
0.044359468 0.026024282 0.015631987 -0.02437023 0.027575886 0.03492691 -0.011786504 -0.03349265
-0.0039807567 -0.054131027 0.019393181 -0.03827039 0.046654277 -0.031283528 0.015870873 0.06602418
-0.045152962 -0.002535442 -0.005269258 -0.024046127 -0.008982256 -0.03316482 0.0039084624 0.039510205
-0.016317911 -0.04891183 0.031615086 -0.024219355 0.04185604 -0.0030267208 0.062349126 0.025828702
-0.018486058 0.003905668 -0.042671885 0.041876942 0.057610497 -0.0014038123 0.03265818 0.06942168
-0.016612213 0.014151163 -0.057981797 -0.05416083 0.023749964 0.054399256 -0.004077615 -0.052946366
-0.043215785 0.042474445 -0.02071195 -0.043759685 -0.049578663 0.0050899764 0.030214638 0.053179123
-0.0516574 0.048375383 0.06564419 0.052775007 0.010559937 -0.052499328 -0.021140363 0.02395672
-0.02241087 0.030673506 0.020909393 -0.029563352 -0.0018160441 0.010073781 0.04497415 0.036017694
0.043748513 -0.034491044 0.03227447 -0.04859517 -0.039576128 0.053583406 0.029559629 0.037799146
0.023299199 -0.025530674 0.02464777 -0.043912422 -0.04210191 -0.03367892 -0.025702039 -0.017599428
0.06235289 0.04133449 -0.039579853 0.024794921 -0.03066796 -0.026417304 0.06374427 0.038823616
0.010607435 0.02960992 0.03187586 0.04879357 -0.034423985 -0.050301377 0.04396458 -0.002077458
0.03559002 -0.020227654 -0.013931368 0.035251014 0.00038945794 0.041447684 -0.02759451 0.0014245345
-0.02215738 0.032859348 0.017286502 0.017083472 -0.04021316 -0.018631347 -0.06150347 0.03688672
-0.009353858 0.012028652 0.02477257 -0.018558703 0.005173797 -0.028090507 -0.03682039 0.04167547
-0.012868896 0.007940093 0.029317481 0.053646736 0.045857053 -0.036286656 0.067611165 -0.008743834
-0.036208425 0.017605018 0.047268957 0.06834134 -0.0068138763 -0.045555297 0.03429733 0.052637167
-0.010723852 -0.04139037 -0.010810466 0.05413848 0.0029743335 -0.026601708 -0.024724137 0.016707212
00000000: a945 133d 25a7 86bc 23fe a9bc 35cb 633d
00000010: a6a2 b53c 077c 403c 4562 983c 59a5 4c3b
00000020: 7d36 e5bc fdfb 0e3c d452 6c3d fd78 0fbd
00000030: cf9d 4a3d 27a1 873d 8f01 4a3d de7f 24bc
00000040: 2fdc 92bc 5c66 6c3d 8460 c43c 96a4 6e3d
00000050: 327b 033d ec53 64bd a1c0 30bd 219a 73bc
00000060: 8005 7dba c445 843c 084d 883c de0a 783c
00000070: 1a31 febb babe 43bd 1d5b 053d eed0 e43c
00000080: 6c7c f6bb 4c77 463d 03dd 0c3c 74d8 cc3c
00000090: e117 8bbc 2f5a 9a3d 0173 57bb edd4 0e3d
000000a0: e87c 56bc 26d0 3f3c 623a 9e3c 06ee c9ba
000000b0: 4142 babc 3994 9ebc 6b03 20bd 416f 1d3d
000000c0: 85e2 2bbd e0a2 5e3b 89e6 9c3b 8c42 6d3d
000000d0: e705 d5bc 7e34 103d c617 1abd c14c 8a3d
000000e0: c17b 423d 2e76 87bc 25af 5a3d f7d6 38bd
000000f0: 0289 c5bc 2da0 473d 3913 74bb d079 093d
00000100: 1af0 813d 22dd 44bd 61d5 e0bc 9641 063c
00000110: ddf2 343c 46d3 1abd 4296 813c ce6f 993d
00000120: f39b 743d 33d5 0cbd d562 5bbd 9bab 823d
00000130: 195f 683d 5e74 863d 5c53 a1bc 2f22 c03b
00000140: 0013 cb3c e66d 6e3d e135 4dbb 40f2 1cbd
00000150: fae2 fdbc 82a4 8b3c 5978 693d f455 47bd
00000160: 1c1e 333d 268b 193b b4e2 ff3c ba71 8b3d
00000170: b1c0 cc3c d267 8cbc c910 143d 0f00 9cbb
00000180: a03e b83a 78d0 123d 36c8 07bd bff9 493d
00000190: 584a b83c 76c0 23bd fe1e 493d 52b2 8a3d
000001a0: 46b2 353d e030 d53c a70e 803c 14a4 c7bc
000001b0: d3e6 e13c 850f 0f3d 2e1c 41bc 972f 09bd
000001c0: 0271 82bb 7fb8 5dbd 73de 9e3c 6ac1 1cbd
000001d0: 8e18 3f3d 2823 00bd a203 823c af37 873d
000001e0: 50f2 38bd a829 26bb bda9 acbb 62fc c4bc
000001f0: 502a 13bc d6d7 07bd 8f12 803b 74d5 213d
00000200: 24ad 85bc c557 48bd d27e 013d ab67 c6bc
00000210: 3d71 2b3d f35b 46bb cc61 7f3d b796 d33c
00000220: 1370 97bc 3cf6 7f3b b7c8 2ebd 2887 2b3d
00000230: fcf8 6b3d 2000 b8ba 95c4 053d f42c 8e3d
00000240: 5616 88bc 48da 673c 527e 6dbd bfd7 5dbd
00000250: 498f c23c c1d1 5e3d 849d 85bb 4ade 58bd
00000260: 0903 31bd aff9 2d3d 1bac a9bc 5b3d 33bd
00000270: ff12 4bbd d1c9 a63b b084 f73c 5ad2 593d
00000280: b696 53bd 4425 463d 7670 863d 9b2a 583d
00000290: 9603 2d3c 8909 57bd 8e2e adbc e240 c43c
000002a0: 0097 b7bc 0147 fb3c 2d4a ab3c d82e f2bc
000002b0: 5408 eeba 800c 253c d036 383d 4a87 133d
000002c0: a431 333d 7b46 0dbd 3c32 043d bb0b 47bd
000002d0: 941a 22bd 467a 5b3d 0927 f23c 47d3 1a3d
000002e0: f6dd be3c b425 d1bc 1fea c93c 83dd 33bd
000002f0: 0d73 2cbd e8f2 09bd 158d d2bc ad2c 90bc
00000300: be65 7f3d 5b4e 293d 7c1e 22bd b81e cb3c
00000310: 603b fbbc 1a69 d8bc 5b8c 823d 8305 1f3d
00000320: cfca 2d3c 8190 f23c 4390 023d c4db 473d
00000330: 2a00 0dbd d108 4ebd 3414 343d f625 08bb
00000340: d7c6 113d 77b4 a5bc 6440 64bc 5e63 103d
00000350: 2930 cc39 0cc5 293d e20d e2bc 72b7 ba3a
00000360: 6583 b5bc 8697 063d 6c9c 8d3c a3f2 8b3c
00000370: 8eb6 24bd c4a0 98bc 10eb 7bbd 8816 173d
00000380: ed40 19bc d313 453c d8ef ca3c 6c08 98bc
00000390: f488 a93b 101e e6bc fad0 16bd e6b3 2a3d
000003a0: 10d8 52bc 2a17 023c 372b f03c aebc 5b3d
000003b0: 9bd4 3b3d 51a1 14bd b977 8a3d 4c42 0fbc
000003c0: 494f 14bd 6638 903c 189d 413d 8bf6 8b3d
000003d0: f046 dfbb 3198 3abd 5b7b 0c3d 129a 573d
000003e0: 18b3 2fbc f388 29bd 611e 31bc 50c0 5d3d
000003f0: 09ed 423b d3eb d9bc 468a cabc 90dd 883c

fc3.bias f4 [256]
0.07255097 -0.040544722 -0.05154937 -0.047604237 0.025955364 -0.060665272 -0.016113019 -0.0062723057
-0.021036055 0.018713307 0.02298068 0.05123644 0.030362437 0.042399935 -0.017273463 -0.0055402764
-0.006202921 -0.03471084 -0.007210159 -0.008388995 0.008799714 0.032453284 0.023518993 -0.011462401
-0.0075645326 -0.0058336467 0.031066526 0.037534647 -0.063386634 -0.005709314 -0.052778732 0.033194624
0.06724609 -0.05496923 -0.018743107 -0.024377681 0.0029494201 0.030110978 0.007781068 0.041613888
0.05170583 0.020834887 0.056034673 0.004641073 0.04646428 0.027642943 0.013876419 0.031109368
-0.06665003 -0.017958926 -0.033415712 0.06256706 0.002871188 -0.0038462954 -0.029045532 -0.023748102
-0.04955631 0.0208591 0.02104723 0.0056143175 0.07026361 0.007663719 0.009762714 -0.047518555
-0.012094777 0.06986872 -0.04343558 0.017545411 -0.013266396 -0.018502822 0.021013703 0.017748442
0.053229496 0.0024809588 0.008662809 0.04470592 0.028231546 0.023228414 0.045585103 -0.040641576
-0.006339827 0.016129782 -0.046394728 -1.9278807e-05 -0.0154047385 0.018262539 -0.020089816 0.038182855
-0.030533805 0.012765338 0.0076516117 -0.0072343745 0.044035364 -0.028453203 0.05758442 0.028715838
0.029442279 0.031302154 0.023478014 0.06190581 0.00032361082 -0.06483207 -0.023705259 -0.010882178
0.011950419 -0.05593037 0.019901687 -0.020831158 0.038637344 0.03200252 -0.026793566 -0.017340517
0.050282754 0.031484693 0.06978602 -0.040490754 0.04646915 0.020346867 -0.05373614 -0.008087244
-0.018232737 -0.046363696 -0.011073102 0.02240441 0.03785502 0.017102098 0.023591638 0.05998726
-0.030559883 0.039870434 0.0026912077 0.029047392 0.04631418 0.07098632 -0.02510971 6.555358e-05
-0.021755045 -0.021261437 -0.043040697 -0.018853005 -0.011572298 -0.018253226 -0.009910797 0.036215875
-0.042273276 0.05354792 0.037663832 -0.012864059 0.021915235 0.0013982243 -0.007181288 -0.040708635
-0.00032100486 -0.050450396 -0.02051078 -0.037944432 0.004506961 -0.013300854 -0.0047989343 -0.051277418
-0.031447444 -0.03430105 -0.014629869 -0.019514253 -0.053978287 0.06729079 -0.02984089 -0.010246077
0.004975422 -0.00055591937 -0.027108354 -0.034640055 -0.042068385 0.052503057 -0.053683985 -0.04897516
0.053005975 0.017869517 0.031309605 -0.027210804 0.03695528 -0.04377459 0.010047703 -0.042131715
0.04125626 0.059305523 -0.028782895 0.020283535 -0.05796813 0.024014462 -0.05588939 0.05285696
-0.04105509 -0.064608544 0.020898217 0.035303168 0.058299683 0.027745388 0.016735151 -0.012928321
-0.0029336736 -0.032226037 0.05436572 -0.018283028 -0.036607035 0.01734238 -0.002963623 0.03253152
-0.0016465413 0.0552002 0.042228572 0.028315363 -0.05974356 -0.022686379 0.008973874 -0.00872273
0.014782608 -0.033868916 -0.044253223 0.020527545 -0.024267785 0.04044041 -0.037929535 -0.037799142
0.016701622 -0.00052605855 -0.022701278 -0.007447184 0.0077847927 0.025584692 -0.05847105 0.009217883
-0.036275484 -0.03012588 -0.00734334 0.041699577 -0.06345369 0.06997303 -0.0422472 0.008074205
0.025607042 -0.05575625 0.039874155 -0.05309166 -0.007392701 0.016012436 -0.0141399875 0.033503827
-0.023625165 0.028028514 -0.0074881627 0.053739864 0.06817742 0.03996729 0.03912164 0.052029938
00000000: 9a95 943d 3912 26bd 6f25 53bd a9fc 42bd
00000010: 58a0 d43c 267c 78bd 73ff 83bc ea87 cdbb
00000020: ce53 acbc a64c 993c fb41 bc3c 4ddd 513d
00000030: a5ba f83c 8eab 2d3d 1481 8dbc 358b b5bb
00000040: df41 cbbb f42c 0ebd 3343 ecbb ff71 09bc
00000050: ad2c 103c bced 043d e7aa c03c cbcc 3bbc
00000060: e6df f7bb 2d28 bfbb 3a7f fe3c eebd 193d
00000070: dad0 81bd 3215 bbbb 832e 58bd 16f7 073d
00000080: 51b8 893d 6a27 61bd 258b 99bc b4b3 c7bc
00000090: 0f4b 413b 4cab f63c 54f8 fe3b 5373 2a3d
000000a0: 7ec9 533d edad aa3c 9d84 653d 2414 983b
000000b0: 5451 3e3d 7473 e23c eb59 633c 13d9 fe3c
000000c0: d07f 88bd 991e 93bc eade 08bd 2923 803d
000000d0: 8b2a 3c3b 2112 7cbb e5f0 edbc 618b c2bc
000000e0: 8ffb 4abd b4e0 aa3c 3e6b ac3c 4ff8 b73b
000000f0: 5ee6 8f3d ef1f fb3b caf3 1f3c d1a2 42bd
00000100: 2c29 46bc 5517 8f3d 82e9 31bd 65bb 8f3c
00000110: 4c5b 59bc 3b93 97bc ee24 ac3c 2e65 913c
00000120: 2c07 5a3d 9597 223b 74ee 0d3c 8e1d 373d
00000130: d845 e73c 8449 be3c 72b7 3a3d c877 26bd
00000140: 53be cfbb 9b22 843c 6608 3ebd ecb8 a1b7
00000150: 2864 7cbc 529b 953c 6693 a4bc a065 1c3d
00000160: 0822 fabc b525 513c 5fba fa3b 550e edbb
00000170: 6d5e 343d b116 e9bc a4dd 6b3d 7a3d eb3c
00000180: ef30 f13c b036 003d f754 c03c f290 7d3d
00000190: 4faa a939 adc6 84bd 8831 c2bc 2a4b 32bc
000001a0: b1cb 433c 3e17 65bd dd08 a33c 1ba6 aabc
000001b0: 3142 1e3d 1315 033d 2e7e dbbc b30d 8ebc
000001c0: 4af5 4d3d 18f6 003d f9eb 8e3d a2d9 25bd
000001d0: 6f56 3e3d 79ae a63c 6d1a 5cbd 5c80 04bc
000001e0: d25c 95bc dce7 3dbd f56b 35bc 7489 b73c
000001f0: de0d 1b3d b319 8c3c 4043 c13c 33b5 753d
00000200: b858 fabc 2e4f 233d f95e 303b ccf4 ed3c
00000210: f0b3 3d3d 4761 913d e1b2 cdbc cf79 8938
00000220: a337 b2bc 772c aebc 714b 30bd 9e71 9abc
00000230: bc99 3dbc ca87 95bc e560 22bc 1957 143d
00000240: be26 2dbd 1055 5b3d 6445 1a3d c6c3 52bc
00000250: 9487 b33c 9f44 b73a 0351 ebbb 19be 26bd
00000260: 8b4c a8b9 13a5 4ebd 3906 a8bc 9f6b 1bbd
00000270: 21af 933b d3eb 59bc 6140 9dbb 4508 52bd
00000280: 09cf 00bd 427f 0cbd 1eb2 6fbc 5bdc 9fbc
00000290: 5618 5dbd c1cf 893d e274 f4bc 29df 27bc
000002a0: dd08 a33b 1ebb 11ba 5712 debc bbe2 0dbd
000002b0: e64f 2cbd 720d 573d bde3 5bbd 2d9a 48bd
000002c0: cb1c 593d 1863 923c 803e 003d 31e9 debc
000002d0: 6b5e 173d fc4c 33bd 1f9f 243c 4e92 2cbd
000002e0: 53fc 283d 59ea 723d 1bca ebbc a829 a63c
000002f0: fd6f 6dbd fab9 c43c 46ec 64bd 8a80 583d
00000300: 6229 28bd 7c51 84bd bd32 ab3c 0e9a 103d
00000310: a6cb 6e3d 4c4a e33c 2818 893c 4fd1 53bc
00000320: e042 40bb 73ff 03bd 97ae 5e3d 4ac6 95bc
00000330: 42f1 15bd 9b11 8e3c 5839 42bb c53f 053d
00000340: c2d0 d7ba 9b19 623d def7 2c3d 9ff5 e73c
00000350: aab5 74bd c9d8 b9bc 2807 133c c8e9 0ebc
00000360: c032 723c 22ba 0abd de42 35bd 6229 a83c
00000370: 3ccd c6bc d8a4 253d 005c 1bbd 46d3 1abd
00000380: d7d1 883c 31e7 09ba 08f8 b9bc 8207 f4bb
00000390: 9317 ff3b fd96 d13c 577f 6fbd 9b06 173c
000003a0: 9a95 14bd 8dca f6bc 67a0 f0bb 2dcd 2a3d
000003b0: 02f4 81bd 054e 8f3d 660b 2dbd ac49 043c
000003c0: dcc5 d13c aa60 64bd 1553 233d a476 59bd
000003d0: 793e f2bb 832c 833c 68ab 67bc 4f3b 093d
000003e0: 9089 c1bc 0e9c e53c 435f f5bb 551e 5c3d
000003f0: 9aa0 8b3d beb4 233d 033e 203d 581d 553d

lin_vel.weight f4 [1, 256]
0.021870531 0.06861701 0.020508919 -0.014660602 0.060352344 -0.01056925 0.02062068 -0.028525846
-0.020028349 0.030874673 -0.0146838855 -0.017467178 -0.032229763 0.027598238 -0.044281233 0.027778918
0.037985414 0.046974655 0.02261001 0.068274274 -0.006138193 0.06968991 0.009807419 -0.016332813
-0.031103779 0.21585356 -0.045447264 0.04791344 -0.024468953 0.023504091 0.03122858 -0.0019118552
0.07135886 0.0026905092 0.035660803 0.065584585 -0.05076332 -0.017852752 0.008253022 -0.05322204
-0.02619006 0.025916249 -0.016327225 -0.043577142 0.034435168 0.054335922 -0.011380442 -0.047563255
0.0045777424 -0.056779742 0.047338843 0.07596338 0.04077569 0.04230308 0.03154058 -0.0020716372
-0.026482498 -0.03684173 0.028510947 -0.045018848 0.06049391 0.070896916 -0.036405865 -0.011928998
-0.04178153 0.09367363 -0.018079996 -0.0013949645 -0.045588825 0.048975162 0.07042007 -0.04253032
0.05381065 -0.010773212 0.007808076 -0.027382167 0.07153767 -0.035288263 0.073854834 0.038551666
0.054697283 -0.043606944 0.051504668 0.014795647 0.038592644 -0.035888046 0.036219604 0.075374775
-0.0066010663 0.03214036 0.018284893 0.031343136 -0.023673592 -0.037191913 0.036744874 0.013188164
0.010776938 -0.043823015 0.056381132 0.06866171 0.0021959706 -0.016219191 -0.038402647 0.0778484
-0.023014208 -0.044843756 -0.020110307 0.0045484053 -0.025871541 0.012503632 -0.057595592 0.066799045
0.2494263 -0.042999715 0.06906405 0.0024001657 0.07258822 -0.012269867 0.03436811 0.003600656
0.08561945 0.07049458 0.057092674 -0.05639231 -0.027620587 -0.019117504 0.03712486 0.055706847
-0.0321031 0.03131706 0.046672903 -0.009176904 0.000102857906 0.06329723 0.054395527 -0.048632428
-0.02220581 -0.012763474 -0.014935346 0.06863191 0.009328713 0.06002079 -0.0469523 -0.055058636
0.020330103 0.06323762 0.055304512 0.035847068 0.0055109398 0.04124881 0.0059775384 0.0018914824
-0.001322204 -0.009554096 0.063684665 -0.026340935 0.031566657 0.047317386 -0.03089516 0.012723427
-0.025599591 0.06724609 -7.490026e-05 -0.008834174 0.045894306 0.056571126 -0.05319224 0.09461987
-0.025711352 0.047965594 0.06343879 0.05629545 -0.010256321 0.024098283 -0.001954231 0.050428044
-0.01868164 0.1557117 -0.048617527 -0.035049845 0.066001825 -0.028592901 0.07150787 -0.046061944
0.02141045 0.050513726 0.019139858 -0.055971343 -0.042880923 0.018491648 0.0066620694 -0.04396085
-0.05427259 -0.0073731425 -0.040570796 -0.04000827 0.04533923 0.045570202 -0.025737429 -0.015965868
-0.03290183 0.053654186 0.053248126 0.057956953 -0.0043025324 -0.054138478 -0.024925306 0.057193257
0.036711346 -0.0013660932 0.029473945 0.03623078 0.05535294 -0.026696704 -0.042154063 -0.04770482
-0.041375466 -0.048312046 0.059648257 -0.03219996 0.04357342 0.014095283 0.06281293 0.010925021
-0.04870321 -0.033153646 0.037471317 -0.013510404 0.052521683 0.037825223 -0.021892881 -0.043513812
0.008179447 -0.05588566 0.041826237 0.019283284 -0.019566407 0.025528813 0.040123757 0.004427332
0.032721512 -0.019642778 -0.01626017 -0.04588685 -0.05416828 0.014439877 0.0007364237 -0.049478076
-0.045234025 0.013908085 0.017219447 -0.0025345106 0.015332095 -0.029880006 -0.0023051694 0.058221452
00000000: d429 b33c 1387 8c3d 5202 a83c 0633 70bc
00000010: 0534 773d a62a 2dbc b3ec a83c 09af e9bc
00000020: 7e12 a4bc e2ec fc3c ae94 70bc 5417 8fbc
00000030: 5b03 04bd b315 e23c 3d60 35bd 9d90 e33c
00000040: 9896 1b3d 7f68 403d a138 b93c 62d3 8b3d
00000050: e522 c9bb 95b9 8e3d 4caf 203c 64cc 85bc
00000060: 5acd febc b708 5d3e e926 3abd e240 443d
00000070: 1d73 c8bc a78b c03c 14d3 ff3c 3797 faba
00000080: 9824 923d 4153 303b 1011 123d 3651 863d
00000090: 33ed 4fbd ef3f 92bc af37 073c 5bff 59bd
000000a0: 898c d6bc 504e d43c acc0 85bc f27d 32bd
000000b0: e40b 0d3d 588f 5e3d 0975 3abc b0d1 42bd
000000c0: e300 963b e091 68bd 60e6 413d b092 9b3d
000000d0: 6904 273d ff45 2d3d b230 013d 4ec4 07bb
000000e0: d3f1 d8bc 5be7 16bd ca8f e93c af65 38bd
000000f0: 76c8 773d 6732 913d 511e 15bd d871 43bc
00000100: 1c23 2bbd f6d7 bf3d 801c 94bc 3ed7 b6ba
00000110: 59bb 3abd 2e9a 483d 6638 903d 4634 2ebd
00000120: 8e68 5c3d 2082 30bc e4da ff3b 9150 e0bc
00000130: 5882 923d 6d8a 10bd 3441 973d 5ae8 1d3d
00000140: 420a 603d 329d 32bd 8ff6 523d 7169 723c
00000150: 5213 1e3d 58ff 12bd 025b 143d 175e 9a3d
00000160: c24d d8bb 9ca5 033d 33ca 953c a961 003d
00000170: 1fef c1bc 8c56 18bd cb81 163d 2b13 583c
00000180: c191 303c c37f 33bd e7ef 663d 839e 8c3d
00000190: 46ea 0f3b 1cde 84bc 184c 1dbd fb6e 9f3d
000001a0: 4b88 bcbc 16ae 37bd 5fbe a4bc ca0a 953b
000001b0: 8ef0 d3bc 09dc 4c3c 5be9 6bbd f0cd 883d
000001c0: 9c69 7f3e 7820 30bd 7471 8d3d 194c 1d3b
000001d0: 22a9 943d 8d07 49bc 93c5 0c3d fcf8 6b3b
000001e0: 4059 af3d 765f 903d 02da 693d 9ffb 66bd
000001f0: 9244 e2bc 509c 9cbc 3d10 183d dd2c 643d
00000200: 8a7e 03bd 5146 003d 162c 3f3d ba5a 16bc
00000210: 6bb5 d738 faa1 813d d8cd 5e3d cc32 47bd
00000220: f5e8 b5bc e41d 51bc 62b3 74bc e38e 8c3d
00000230: 75d7 183c 5cd8 753d 0e51 40bd 2a85 61bd
00000240: 518b a63c ba82 813d fc86 623d 60d4 123d
00000250: 1d95 b43b 83f4 283d 3adf c33b 9eeb f73a
00000260: ce4d adba c888 1cbc 1b6d 823d f2c8 d7bc
00000270: 0a4c 013d e0cf 413d d917 fdbc ec75 503c
00000280: 3cb6 d1bc 51b8 893d c513 9db8 36bd 10bc
00000290: abfb 3b3d 20b7 673d 1be0 59bd 10c8 c13d
000002a0: 9da0 d2bc 9277 443d 32ec 813d 0f96 663d
000002b0: 210a 28bc c369 c53c 8e12 00bb a38d 4e3d
000002c0: 3d0a 99bc e372 1f3e 2c23 47bd 6d90 0fbd
000002d0: f72b 873d a93b eabc b872 923d 73ab 3cbd
000002e0: f864 af3c 7be7 4e3d 31cb 9c3c 3542 65bd
000002f0: e8a3 2fbd cc7b 973c 7d4d da3b 4b10 34bd
00000300: ef4c 5ebd 679a f1bb 902d 26bd b6df 23bd
00000310: a1b5 393d d2a7 3a3d 4dd7 d2bc daca 82bc
00000320: 12c4 06bd 7ec4 5b3d b51a 5a3d 4564 6d3d
00000330: 42fc 8cbb 4fc0 5dbd 2830 ccbc 7a43 6a3d
00000340: a35e 163d 7b0e b3ba 5873 f13c ba66 143d
00000350: c4b9 623d 0cb3 dabc bda9 2cbd 2166 43bd
00000360: 5279 29bd dae2 45bd bb51 743d 1be4 03bd
00000370: 0b7a 323d e7ef 663c 11a4 803d dcfe 323c
00000380: 047d 47bd 1ecc 07bd 867b 193d be5a 5dbc
00000390: fa20 573d 9fee 1a3d b358 b3bc 8a3b 32bd
000003a0: 1603 063c 5de8 64bd fd51 2b3d faf7 9d3c
000003b0: bb49 a0bc cd21 d13c cf58 243d 2713 913b
000003c0: fe06 063d e4e9 a0bc 0c34 85bc daf3 3bbd
000003d0: 8fdf 5dbd 3c95 6c3c 8f0c 413a 86a9 4abd
000003e0: 5047 39bd bdde 633c cc0f 8d3c 081a 26bb
000003f0: 7833 7b3c eac6 f4bc 5312 17bb 9e79 6e3d
