ddpg/models/target_critic.pth (torch, 811724 bytes, 9 tensors)

state_fc.weight f4 [256, 14]
000000 d9 11 12 be 17 4d 48 3e 85 97 77 bc 4d a3 73 bd
       -0.14264621 0.19560657 -0.015111809 -0.059481908
000010 c1 80 84 3d 9b dc 58 3e c5 92 8b bd e4 47 62 3e
       0.0646987 0.21177904 -0.068151034 0.22097737
000020 c9 73 49 3e c9 e5 2b 3e 57 62 b6 be c1 83 4c 3e
       0.19673075 0.16786875 -0.35621902 0.19972135
000030 28 67 0a 3d f6 64 54 bd a7 e4 4d be 29 69 04 3e
       0.033789784 -0.051854096 -0.20106755 0.1293074
000040 c6 bc 45 be 1d 73 93 3e e8 08 81 3e 60 d7 0b be
       -0.19310293 0.28798762 0.25202107 -0.13656378
000050 0e a1 97 bd 9e 46 64 be 1f 5a fe bd 39 ac 72 3e
       -0.074037656 -0.22292563 -0.12419533 0.2369851
000060 41 cc ea 3e 4b cf be be e8 54 6a be 0b 32 f5 3d
       0.45858958 -0.37267527 -0.22883952 0.119724356
000070 ae b9 47 3d ae 26 83 be 0c 26 8b bc 11 31 15 be
       0.048761062 -0.25615448 -0.016985916 -0.14569499
000080 76 d5 4e bd 15 55 ca bd 2a 7f a3 3d 72 91 c9 3d
       -0.05049654 -0.09879509 0.07983239 0.098421946
000090 c5 73 f4 bd bb 5a 96 bd d7 71 d3 3d 89 78 d9 bd
       -0.11936144 -0.07341524 0.103244476 -0.106186934
0000a0 8b 98 99 3b 90 60 88 bd 66 2e 58 3e 80 08 84 3e
       0.004687374 -0.06659043 0.2111145 0.25787735
0000b0 e6 6d f2 3c 30 50 80 3d 35 37 2b be 23 16 4d bd
       0.02959342 0.062652946 -0.16720279 -0.05006994
0000c0 3b 84 72 be 38 eb e6 bd 72 11 09 be 81 c9 45 3e
       -0.23683254 -0.11275333 -0.13385561 0.19315149
0000d0 2a ab dd 3e 1d 87 83 be 81 c5 5d 3e d6 e2 0c 3d
       0.4329465 -0.2568902 0.21657373 0.034396015
0000e0 e8 29 ce 3d d5 44 05 3e e0 cd f5 bd 43 49 4b be
       0.10066587 0.13014539 -0.12002158 -0.19852166
0000f0 6a 8e 91 3e 86 43 36 bd 92 22 2a 3e 7a 81 3f be
       0.28428966 -0.04449799 0.1661475 -0.18701735
000100 33 41 ed 3d 50 0a 3b be 9b a4 d9 3e 02 5a 53 bd
       0.115847014 -0.18265653 0.42508397 -0.05159951
000110 fd d9 99 bd 2e 1c 70 3d 0b 59 57 3c 3c 5f ce bd
       -0.07512281 0.058620624 0.013143788 -0.10076758
000120 50 4e 60 3d 25 b5 e1 bc 60 c4 87 be 07 60 1d bb
       0.054762185 -0.027552197 -0.2651701 -0.0024013536
000130 5d b4 97 3d d7 a0 92 bb 4b 54 0c be d9 74 05 be
       0.074074484 -0.00447474 -0.1370403 -0.13032855
000140 ee bd 19 bc 7d c8 85 be ff d0 af bd 5c b0 55 3e
       -0.009383662 -0.26129523 -0.08584785 0.20868057
000150 47 4c 89 3e 97 ca 5f 3e c4 a2 92 3e 0b e7 f1 3d
       0.26816007 0.21854626 0.28639805 0.11811646
000160 34 00 c8 3d 5b bf 21 3e cb 22 7e 3d 68 34 a9 ba
       0.09765664 0.15795653 0.0620449 -0.0012909295
000170 ff 1e 2e 3e fa 56 e4 bd 51 08 36 be 31 70 57 3e
       0.17004012 -0.11149402 -0.1777661 0.21038891
000180 0e d0 5e 3e 61 6e 2f 3d 25 ed 54 3e 94 87 05 be
       0.21759054 0.042829875 0.20793588 -0.1304
000190 d3 87 4b 3e 08 d0 53 3e 7a 77 69 3e d9 f9 43 bd
       0.19876032 0.20684826 0.22799483 -0.047845695
0001a0 17 c7 34 be 11 07 29 bd a1 a6 89 be d3 95 63 be
       -0.17654072 -0.041266505 -0.2688494 -0.22225122
0001b0 ef 1b 54 be f2 9e 1b be fe 15 c4 bd 67 3d 08 bd
       -0.20713781 -0.15197352 -0.09574507 -0.033261683
0001c0 f5 23 b0 bd e3 a1 8f 3d 4c 4c a2 bd fa 20 35 3e
       -0.08600608 0.07013299 -0.07924709 0.17688361
0001d0 b0 3a 2a be f1 6b c8 bd d3 42 a7 3d 48 e2 45 3c
       -0.1662395 -0.09786213 0.081670426 0.012077875
0001e0 3c e5 b9 bc 3c 92 61 3e 07 16 a4 3d 6f 93 0b bf
       -0.022692315 0.2202844 0.08012014 -0.5452184
0001f0 90 6d 54 3d 57 ca 09 bd dd 98 17 bc 03 6a 60 3d
       0.0518623 -0.033640232 -0.009252754 0.0547886
000200 9b 0f d1 bd 28 98 35 be 8b a6 ff 3d fb a4 e1 bb
       -0.10208055 -0.17733824 0.124829374 -0.0068861223
000210 e6 e0 6b 3d 4e 99 43 be c9 aa 08 3d 80 a9 66 3e
       0.057587527 -0.1910145 0.033366 0.22525597
000220 29 3b 11 3d 22 76 b1 3e 1a a2 ec bc 2b 4c 32 be
       0.03545681 0.3466044 -0.02888589 -0.17411868
000230 65 21 f9 3d 4c ce 65 3d e4 f2 94 bd ca 24 06 bd
       0.121645726 0.056104943 -0.0727289 -0.03274993
000240 69 5f 15 bd 2a 4c 92 3e ef c1 21 3e 4d f6 6a 3d
       -0.036467943 0.28573734 0.15796636 0.057363797
000250 e5 4f 69 3e 43 ce 35 be 64 07 45 be a9 bc d6 3d
       0.22784384 -0.17754464 -0.192411 0.10485203
000260 42 67 0b bc 46 2f 88 3e ea bc 0d be 5b 33 08 be
       -0.008508505 0.26598567 -0.13841596 -0.1330084
000270 e5 58 e2 bd b3 e2 0d 3e 94 66 7c 3e 27 56 61 be
       -0.110521115 0.1385601 0.24648505 -0.22005521
000280 b3 b2 85 3e 2d 70 2a bd 54 06 0f be cc 84 f3 3d
       0.261129 -0.041610885 -0.13967258 0.11890563
000290 3b 78 d2 3e fe 4f ff 3d 3f 33 4c be 32 26 31 bb
       0.41107354 0.12466429 -0.19941424 -0.0027030823
0002a0 52 32 cc bd 70 35 0d 3e 7f 37 ba bc b3 2a 5d 3e
       -0.09970535 0.13789916 -0.02273154 0.2159832
0002b0 f5 65 90 3e bc e6 20 be 6c 92 04 3d 2d 9b 89 3e
       0.28202787 -0.15713018 0.0323662 0.26876202
0002c0 40 ae 56 bd 7b 7f ed 3d f5 12 ed be da 76 74 3e
       -0.05241227 0.115965806 -0.46303526 0.23873463
0002d0 63 23 a9 3c 49 e0 ab bd 69 bf 80 be 5a 27 c5 3d
       0.020646757 -0.083923884 -0.25146034 0.09626646
0002e0 b3 7f 17 3b c3 4b 03 be 85 c6 be bd 85 ed a2 3d
       0.0023116886 -0.1282187 -0.09315208 0.079554595
0002f0 44 86 d9 bd f7 77 7a 3c be 60 5c be 3c 27 8d bd
       -0.10621312 0.015287391 -0.21521279 -0.06892249
000300 62 79 c5 3d 6a b3 82 3e 0a 26 e6 bd 93 4b 06 3e
       0.096422926 0.25527507 -0.11237724 0.13114767
000310 a4 c4 04 3d 97 40 6c be 38 bb e3 3c 9a e7 dc 3d
       0.032414094 -0.23071514 0.027799234 0.10786362
000320 17 83 6a be 8b 80 6d 3e 01 22 23 3e 47 c0 67 be
       -0.2290157 0.23193567 0.1593094 -0.22631942
000330 4b e6 f1 bd 87 f9 8e 3d e0 2b 92 bd e8 8d e4 3e
       -0.11811503 0.06981187 -0.07137275 0.44639516
000340 ec 25 33 be 89 04 df 3d da f8 c5 3c 63 c5 84 be
       -0.17494935 0.10889537 0.024166513 -0.25931844
000350 eb ce f6 bd 5a c3 58 3e a8 d8 d6 3c 15 a4 f4 3d
       -0.12051185 0.2116827 0.026226357 0.11945359
000360 e8 1f 5b 3c 67 9c 2e bd 40 5e e3 bd 9c ec 1d 3e
       0.013374306 -0.042629626 -0.11101961 0.1542229
000370 09 94 bf 3e 2a 28 c4 bc 77 17 9d bd 53 d5 44 3e
       0.3741763 -0.023944933 -0.07670491 0.19222002
000380 df 44 78 3e f3 7a 45 be e2 99 23 3d a4 47 d7 3d
       0.24245022 -0.19285183 0.039941676 0.10511711
000390 09 a2 01 3e d6 33 a3 bd 73 e1 51 bd 49 5a 63 bd
       0.12659468 -0.07968871 -0.051240396 -0.055506025
0003a0 2e af 6c be 81 b0 6f 3e 39 a0 85 3e a9 46 76 3e
       -0.23113701 0.23407175 0.26098803 0.24050392
0003b0 36 4d c3 bd 2f 3f a7 bc 16 08 5d 3e 3d 9e be 3c
       -0.09536211 -0.02041587 0.21585116 0.023268813
0003c0 b2 79 66 be cd 38 54 be 2c 6e 28 3e 9d cb 73 3e
       -0.2250736 -0.20724793 0.16448277 0.23808141
0003d0 02 f9 59 be 0b 92 84 bd c5 19 ac 3d f9 a3 c5 3d
       -0.21286395 -0.06473168 0.08403353 0.09650416
0003e0 c8 53 02 3f c8 cc 12 bc 5a 45 34 be 01 5d 80 3e
       0.5090909 -0.0089599565 -0.1760458 0.25070956
0003f0 27 68 23 3e e1 8b f2 3c 17 00 5f 3d 85 25 6d bd
       0.159577 0.029607715 0.054443445 -0.05789711

state_fc.bias f4 [256]
000000 65 08 81 3e b8 38 2a be f9 40 05 3e a3 91 c9 3d
       0.25201717 -0.16623199 0.13013066 0.09842231
000010 7f 63 0b be 86 a2 4e be 74 20 61 3e a3 26 a0 bd
       -0.13612173 -0.20179185 0.21985036 -0.07819869
000020 30 80 13 3d 50 95 97 3d bb eb 8c 3e 97 74 4b 3e
       0.03601092 0.07401526 0.27523598 0.19868694
000030 31 58 27 3e 49 e8 01 3e 86 43 84 3e 11 22 0a 3d
       0.16342236 0.12686266 0.25832766 0.033723895
000040 48 92 4e bd 6a f7 96 bb 4c 3b d4 bd b2 58 61 be
       -0.050432473 -0.004607131 -0.103628725 -0.22006491
000050 80 6a 04 be 10 4a 1a be 54 58 7a bd 44 25 46 be
       -0.12931252 -0.15067315 -0.061119393 -0.19350153
000060 d2 f9 5d 3e c0 0c 4c 3e d5 54 39 be ab 30 6a be
       0.2167733 0.19926739 -0.18098767 -0.22870128
000070 f3 ef 49 be 1a 90 84 be c9 92 b7 bd cd 38 e0 bc
       -0.1972044 -0.2589119 -0.08963544 -0.027370835
000080 58 84 ba bd 3f fe 3d 3e fc 77 10 3e 5f c5 84 3e
       -0.09107274 0.18554018 0.1410827 0.25931832
000090 b7 33 36 3e af 13 95 bd e8 35 df ba b6 f7 66 3d
       0.17793165 -0.07279145 -0.0017029615 0.05638858
0000a0 89 7f 5d 3e 88 58 84 be 9d 48 bc 3c 0a 49 61 3e
       0.21630682 -0.25848794 0.022983843 0.22000518
0000b0 27 ce 96 3c ae 21 81 be 9c 5e 18 3e 1f c3 6e bd
       0.018408848 -0.25221008 0.1487984 -0.05829155
0000c0 ca 02 8c bd ed 08 c8 3c 15 88 1c ba 2e 0f 70 3e
       -0.068364695 0.024418319 -0.00059712055 0.2344329
0000d0 3d 1d 64 be 81 86 ca bc de 96 9c 3e c9 2f c1 3d
       -0.22276779 -0.02472234 0.30583853 0.094329424
0000e0 ad 87 9a 3d 24 60 94 bd 5a 79 90 3e 22 37 c4 3d
       0.07545409 -0.072449 0.28217584 0.09580828
0000f0 73 ec 1f be 6a ff 96 3d 16 b2 fa 3c d4 65 05 3d
       -0.15617542 0.07372935 0.030602496 0.032567814
000100 88 9e e6 3d 3c b7 90 3e 7f b6 05 be 20 9f 8a 3e
       0.11260706 0.28264797 -0.13057898 0.27074528
000110 4e d4 41 bc 9e 56 1c 3e ae ed 7d be 78 04 65 3e
       -0.011830403 0.15267417 -0.24797699 0.22364986
000120 8e a1 f6 bd 36 5d 47 be c7 2f 42 be f8 6a 91 3e
       -0.12042533 -0.19469151 -0.18963538 0.28401923
000130 3c e4 51 3e f2 c6 24 be 7b 32 af bd c9 44 18 be
       0.20497221 -0.16091517 -0.0855455 -0.1486999
000140 be a7 83 3e dd 16 8b bd 56 38 83 3e ec fd 44 3d
       0.25713915 -0.0679147 0.25628918 0.04809372
000150 10 e8 af bc 80 77 6d bd 3a fd fe bd 40 46 80 be
       -0.02147296 -0.057975292 -0.12450643 -0.25053596
000160 e4 76 0e 3e 99 70 a6 3d 01 d5 cd bd bb 4f df bd
       0.1391254 0.08126945 -0.10050393 -0.10903879
000170 a9 c7 83 3b 67 46 68 be 56 05 00 be 88 77 80 be
       0.004021604 -0.22683106 -0.12502035 -0.25091195
000180 89 20 e1 3d 16 14 cd 3d f2 12 28 3e 2e 08 d5 3b
       0.10992534 0.10013597 0.16413477 0.0065012192
000190 5e 4f 5d be 45 83 76 3d 9d 35 0d 3e df 08 36 be
       -0.21612307 0.060183782 0.13789983 -0.17776822
0001a0 5c 22 4f 3e f2 63 29 be 7d 92 fd 3c e9 7e 84 3e
       0.20227951 -0.16542032 0.03095364 0.25878075
0001b0 1a ca af 3d 1d ea 5f be 57 a3 50 be 7c 70 30 3e
       0.0858347 -0.21866651 -0.20374809 0.1723041
0001c0 b4 83 e6 3c 93 02 ab 3c 97 ee ed 3c 42 36 86 3b
       0.028138973 0.02087525 0.029044433 0.0040958235
0001d0 d8 f9 5a 3e 8b 88 7b 3e 39 72 c1 3c ad e2 e5 3d
       0.2138437 0.24563806 0.023614036 0.112248756
0001e0 a6 7a 87 3e db 8e 7e bc 48 d5 d0 3d 00 0b 07 3d
       0.2646076 -0.015536989 0.1019693 0.032969475
0001f0 d9 2c 2f be 9b c3 75 3e 6b dc 6c be f6 5a 3f be
       -0.17106952 0.24000399 -0.23130958 -0.18687043
000200 bc 04 1a 3e be 7f e5 3d 70 d7 0b be 20 48 29 3e
       0.15040869 0.112060055 -0.13656402 0.1653142
000210 14 e2 75 be db 95 5c 3e 59 41 74 3d d8 55 2b be
       -0.24012023 0.2154154 0.059632633 -0.16731966
000220 c5 3b 82 be 73 dd 0a 3d 6c 31 99 bc 7b 96 b2 bc
       -0.25436226 0.033902597 -0.018700324 -0.02180027
000230 b2 14 52 bc fa 63 a8 3d 4e 00 04 bd a0 56 af 3d
       -0.012822317 0.08222194 -0.032226853 0.08561444
000240 b4 df 54 3d be e2 2d 3e 79 46 b9 3d 41 17 00 bd
       0.051971152 0.16981027 0.09046645 -0.031272177
000250 8a 8a 81 3e 19 2f 44 be dc f5 bf 38 2a 54 30 3e
       0.2530101 -0.19158591 9.1533846e-05 0.17219606
000260 93 f4 3e 3e 8d 3d 37 3e 5b 28 ae bd e3 73 5a 3e
       0.18647985 0.17894574 -0.08503791 0.2133327
000270 36 5d ae 3d 62 7f 44 3e e3 a1 6f be e3 d3 31 3d
       0.08513872 0.19189218 -0.23401599 0.04341496
000280 65 d1 1e 3e ef 9e 4d 3e 08 17 81 be d4 a6 20 3e
       0.15509565 0.2008016 -0.25212884 0.1568864
000290 15 ab 3c 3e 46 d0 35 3d c9 a4 57 be 88 b6 08 be
       0.18424638 0.04438808 -0.21058954 -0.1335088
0002a0 ab e1 16 be fb 0f b3 bc 9a 42 14 3d 46 4d 78 be
       -0.14734523 -0.021858206 0.03619633 -0.24248227
0002b0 77 df e8 bd 39 62 ed bd 3f 26 44 be 40 6b 46 3c
       -0.113707475 -0.11591 -0.19155215 0.012110531
0002c0 a8 d7 8f 3e b0 6c 39 be b4 4e 1f 3e e7 4d 36 3e
       0.2809422 -0.18107867 0.15557367 0.17803155
0002d0 3c 8f 29 be 8a 97 4d be 81 65 f2 3d d4 de 21 be
       -0.16558546 -0.20077339 0.118357666 -0.15807658
0002e0 e6 ff 30 be 7f 0c 1f 3e 07 6b 83 bd 89 67 98 3e
       -0.17285118 0.1553211 -0.06416898 0.2976649
0002f0 1f 33 1a be 17 73 4d 3d d5 9e 39 be e1 07 5f be
       -0.15058564 0.050158586 -0.18126996 -0.2178035
000300 72 50 26 3e 84 57 42 be 26 d8 5d 3e dc ce e9 3d
       0.16241625 -0.18978697 0.21664485 0.114164084
000310 25 30 05 be 15 b1 10 be 71 f3 de 3c 5e 69 5a be
       -0.13006647 -0.14130051 0.027215691 -0.21329257
000320 eb ef fc 3b 17 7d bf 3d 5b 7b 0c be fa 58 31 3c
       0.00771903 0.09350031 -0.13718931 0.010824436
000330 94 bc 72 be 6f e5 20 3e ab a3 34 be c0 b1 98 3e
       -0.2370475 0.15712522 -0.1764056 0.29823112
000340 c6 3a 80 bc 51 fe 06 be 01 63 1d 3e 46 e4 18 3d
       -0.015653025 -0.13182952 0.15369798 0.037327074
000350 58 84 7c be 7e a0 7f bd b8 78 5d bd 1c b3 47 3e
       -0.2465986 -0.062408917 -0.054070204 0.19501919
000360 91 46 da 3c 96 f9 47 3e cd e9 57 bd 1a 69 f6 3d
       0.026644977 0.19528803 -0.052713204 0.12031765
000370 39 68 97 3e 95 6a a9 3d a0 30 15 3e 20 ad 38 be
       0.29571703 0.08272282 0.1456933 -0.18034792
000380 4d 21 4b 3e 71 ec 43 3e 90 fd f0 bd 24 ae e9 bd
       0.19836922 0.19133164 -0.11767113 -0.11410168
000390 53 b8 05 3e a1 68 17 be 77 cb 7a 3e be a1 80 be
       0.13058595 -0.14786007 0.24491678 -0.251234
0003a0 8f a6 39 be da 15 b1 bd b5 d5 02 3e 03 b4 47 bc
       -0.18129943 -0.08646746 0.12776835 -0.012188914
0003b0 30 7f 72 bd db 1a 5d 3e 16 cd 1b 3e 7e 7d 2b be
       -0.059203327 0.21592276 0.15214953 -0.1674709
0003c0 b9 8f cd 3d 25 e7 b4 ba 0c 93 74 be 7d 26 cd 3d
       0.100371785 -0.0013801797 -0.23884219 0.10017107
0003d0 6c e0 17 be 0a 31 2a 3e f6 7a 34 3d c7 5e b5 3d
       -0.14831704 0.1662027 0.044062577 0.08855968
0003e0 ce f6 6a 3e 48 d1 95 3d 45 dc 37 be 0c ae 62 3e
       0.22945711 0.07315308 -0.1795512 0.22136706
0003f0 ca c4 f6 3d 26 3d 62 3e 67 fa 6c 3d f8 ec 78 be
       0.12049253 0.22093639 0.05785599 -0.24309146

action_fc.weight f4 [256, 2]
000000 d2 63 a9 be 68 88 98 bd a3 0c 16 3f 36 1e 2c 3f
       -0.3308397 -0.074478924 0.5861303 0.672336
000010 29 3e 11 3f 78 8c 11 bf 62 22 70 3e 07 7c c0 3e
       0.56735474 -0.56854963 0.23450616 0.37594625
000020 60 57 da bb d7 1c c9 be db a3 5a 3e 5d 83 be be
       -0.006663248 -0.39279816 0.21351568 -0.37209597
000030 3c 1d 24 3f 55 fb 4c 3e ee 41 cc be e9 a7 c0 3e
       0.6410711 0.2001775 -0.3989405 0.37628105
000040 75 fe 1d 3f 57 0d e6 3e 14 39 3d be d7 d1 e2 3e
       0.61716396 0.44932052 -0.18478805 0.4430072
000050 b9 1d 01 bf f3 cd 73 3e f1 41 23 be 4e 29 9f be
       -0.5043598 0.23809032 -0.15943123 -0.310862
000060 c5 38 16 3f 20 dc ac bd 1a ed 93 bd 4d 4d 27 bf
       0.58680373 -0.08440423 -0.07222958 -0.65352327
000070 f9 ca b2 3e 1e 36 d2 3e fa 33 a1 be b4 0b ac 3c
       0.3492048 0.41056913 -0.31484967 0.021001674
000080 28 db a6 be a2 cd a1 be fc df 02 bf ca 30 f1 3e
       -0.32589078 -0.31602198 -0.51123023 0.47107536
000090 bd dd 7b be f5 6c 70 bd 01 0d 4c bd d3 c3 1e bf
       -0.24596305 -0.05869766 -0.04981709 -0.62017554
0000a0 26 79 19 3d 7d b5 0a bc c1 0d 9e bd 73 da 5b be
       0.03746905 -0.008466122 -0.07717467 -0.2147005
0000b0 df 0e 6f 3d f2 42 bb 3c a3 b4 b2 3e 53 36 58 3d
       0.05836379 0.02285907 0.3490344 0.052786183
0000c0 93 cc 69 3e 2c 88 b2 bd 34 d3 57 bd 24 7d 7f 3e
       0.22831945 -0.08717379 -0.052691653 0.24950081
0000d0 b1 ab 19 bf a3 6b a4 3d 8c 6c a7 3e f4 92 e8 3e
       -0.60027605 0.080283426 0.32700002 0.45424616
0000e0 e5 bb 84 3e e8 71 2d 3f 06 7c 32 bf 36 1d 3b 3e
       0.25924602 0.6775193 -0.69720495 0.18272862
0000f0 d3 d9 27 3f 82 9b 69 3d 1e 58 13 bf 78 8a ff be
       0.6556675 0.05703307 -0.5755633 -0.4991033
000100 69 1a 97 bd ed 5d cb be 0d 3d 60 3d e2 de e5 3e
       -0.07378084 -0.39720097 0.054745723 0.4489661
000110 94 8f 79 3e fe 53 2e be 4d ee dd 3d 61 15 df 3e
       0.24371177 -0.17024228 0.10836468 0.43570998
000120 66 f8 4d be 98 bb e5 3e 32 d6 93 3e c3 c9 32 3f
       -0.20114288 0.44869685 0.28874356 0.69839114
000130 72 a1 d1 bd 9d 40 19 bf 24 08 30 bf 00 ae 12 3f
       -0.102358714 -0.5986422 -0.6876242 0.5729675
000140 1a 95 d8 3e 19 4f 0a 3f 39 01 ac 3e c0 b5 0b 3f
       0.42301255 0.54026943 0.33594683 0.54574203
000150 75 49 14 3e f3 c3 47 bd eb 30 0a 3f 8e 88 02 3f
       0.14481147 -0.048770856 0.5398089 0.50989616
000160 0f 63 db bd c1 6a cc 3e aa 2f 85 be 8b 7d 1b 3f
       -0.10712253 0.39925197 -0.26012927 0.6073844
000170 bf 48 9d be 67 99 23 bf 24 0c f2 be e3 67 fb be
       -0.30719563 -0.6390595 -0.47274888 -0.49102697
000180 34 19 8d 3e 73 6d bd be 0d 3a bd 3e 08 1e 18 bf
       0.2755829 -0.36997566 0.36958352 -0.59420824
000190 28 c1 bc 3e b9 52 fb be a8 1f 2f 3f b7 67 06 3f
       0.36866117 -0.4908655 0.6840768 0.52502006
0001a0 3f be d4 bd 32 57 c7 3e 10 02 f1 be f8 e0 8b be
       -0.10387849 0.38933712 -0.47071886 -0.27320075
0001b0 7f 0c 1d 3f 3f 9e 7b be 5d da a3 3e 70 55 bc 3e
       0.6134719 -0.24572085 0.32002535 0.36783934
0001c0 04 d4 f0 3e 6f 54 22 3f 4e 2b 18 bb cd a9 f0 be
       0.47036755 0.63410085 -0.002321917 -0.47004548
0001d0 20 fd ed 3e 8d e6 f6 3d e0 38 2e 3f d6 a3 d3 be
       0.46482182 0.12055693 0.68055534 -0.41335934
0001e0 bb 12 2b bf d5 45 1c bf 0f 72 b6 3e 7d 52 20 3f
       -0.66825455 -0.61044055 0.35633895 0.6262587
0001f0 fc 6e eb be dc 0b 74 3e b5 57 82 be 5e 09 87 be
       -0.45983112 0.23832649 -0.2545754 -0.26374334
000200 54 8b 38 3e 1f f8 b8 be 52 13 07 3f 7a 47 14 bf
       0.180219 -0.361268 0.52763855 -0.57921565
000210 62 66 cf 3e 6f 08 c3 3e e3 20 27 3f 7e 0d e3 3e
       0.405078 0.38092372 0.65284556 0.4434623
000220 70 6a 19 bf ef a4 cb 3e 91 d6 33 bf 67 86 6e 3e
       -0.59928036 0.39774272 -0.7024928 0.23293458
000230 97 0e 8a 3e ff 5c 26 3e fc 69 38 3d 82 9c 22 3f
       0.26964256 0.16246413 0.04502295 0.6352006
000240 22 38 c6 3d c1 4a 9d 3e df 26 11 3f 60 6c 83 bd
       0.09678675 0.30721095 0.5669994 -0.06417155
000250 b4 5f d8 3e 22 3f 2e bd 9b ca 39 3f 96 71 e8 3e
       0.42260516 -0.042540677 0.72574776 0.4539916
000260 7c db 22 3f 36 ca eb be fa 0e 31 3f 0e d6 76 3c
       0.63616157 -0.46052712 0.6916348 0.015065683
000270 f3 e8 84 be 2b 7a 84 3e fc a2 3a 3e e6 0b 06 3f
       -0.25958976 0.25874457 0.18226236 0.52361906
000280 69 13 ed 3e 14 eb 83 3d 17 64 15 3e 4f b1 c3 be
       0.4630387 0.06441322 0.14588962 -0.38221213
000290 31 c9 ad 3e 10 d0 25 be b4 cc 08 3f 91 01 1a 3f
       0.3394256 -0.16192651 0.5343735 0.6015864
0002a0 0f c3 2b 3e 10 3d f0 be 2c de 10 3f 94 b4 16 3f
       0.16773628 -0.46921587 0.5658901 0.5886929
0002b0 3a 86 93 bd bd 7d 05 bf 18 24 6e be a6 02 1e bf
       -0.07203336 -0.52144986 -0.23255956 -0.6172279
0002c0 e1 80 0b 3f c6 ec 2b bf 28 8d e5 3e 92 b5 5b bd
       0.5449353 -0.6715816 0.44834256 -0.053639956
0002d0 d3 d9 16 be 12 d8 4b bd 5f 2f 36 3e 43 4c 8a bd
       -0.14731531 -0.049766608 0.17791508 -0.06752827
0002e0 30 87 64 3d 6e 03 cb be d9 ec 3b 3e 5c 3c e9 3d
       0.055792987 -0.39651054 0.18352069 0.11388466
0002f0 88 da 1d bd 6f af 9f 3e 82 94 47 3e 45 c4 34 3f
       -0.038538486 0.31188533 0.19490245 0.70611984
000300 e5 3e ed bb 7d 44 98 be 52 ff f3 3e f7 db 86 bd
       -0.0072401636 -0.29739752 0.4765573 -0.06584924
000310 f4 9f 37 3f 7e 43 2b be 87 02 05 bf 81 ef 08 3f
       0.71728444 -0.16724965 -0.5195698 0.53490454
000320 9b 67 75 3e 24 81 c1 be cf 5d f8 be 72 ab 9e bb
       0.23965304 -0.3779384 -0.4850907 -0.004842215
000330 c1 6f 0d bf 8d be d7 be 23 2b d4 be 78 2d dd be
       -0.5524865 -0.42137566 -0.4143916 -0.43198752
000340 07 ea b1 3d f8 d3 80 be 5d 45 d3 be 41 49 04 bf
       0.08687215 -0.2516172 -0.41263857 -0.51674277
000350 39 38 38 3f 7f 8c 01 3f 95 a0 a6 be a2 30 10 be
       0.7196079 0.50605005 -0.3254439 -0.14081052
000360 ee a6 94 3e ca 68 23 3e 1c 0f 80 3e 1e 70 00 3f
       0.29033607 0.15957943 0.25011528 0.5017108
000370 30 aa b1 3e a0 da 17 3f 36 a8 84 3d 22 38 74 3d
       0.34700155 0.5931797 0.06477396 0.059623845
000380 de 90 d7 3e 41 4f 0b bf 15 9e 0b bf 6b b5 12 bf
       0.42102712 -0.54417807 -0.5453809 -0.5730807
000390 b8 06 df be bb 06 9e be 96 5f 1f 3f 3a e8 33 3e
       -0.43559813 -0.3086451 0.6225523 0.17569056
0003a0 3d 5e c3 3e 0b 43 26 3f ed 63 80 3d 0d 56 b8 be
       0.38157836 0.6494605 0.06269059 -0.36003152
0003b0 29 82 e1 bd 6e 1e b5 bd 68 30 13 3f 96 3f 00 3d
       -0.11011154 -0.088436946 0.5749574 0.03131064
0003c0 a4 22 84 be a9 c3 04 be 59 8a e0 be c9 7c 13 3f
       -0.2580768 -0.12965263 -0.4385555 0.5761228
0003d0 29 a1 c1 be 67 86 82 3e c5 dc 06 3f bd 28 15 bf
       -0.37818268 0.25493166 0.5268062 -0.58265287
0003e0 e8 43 e0 3e 0d b8 f5 3d 18 68 30 3e 99 9e ff be
       0.43801808 0.119979955 0.17227209 -0.49925688
0003f0 91 f4 10 3e ba 83 32 bf 3e 87 19 bf 2f 38 ae 3d
       0.14155795 -0.6973225 -0.5997199 0.0850681

action_fc.bias f4 [256]
000000 fd 1e 3b 3e 07 65 6c be 66 a5 ca 3e 77 d8 e6 be
       0.1827354 -0.23085414 0.39579314 -0.45087025
000010 39 c5 3c be 51 40 14 bf bc 46 07 bd 7a 8f 15 3f
       -0.1843461 -0.5791064 -0.033026442 0.5842205
000020 67 31 e0 be bb 38 2c bf 01 f0 91 3e 92 1b 54 be
       -0.4378769 -0.67274064 0.2850342 -0.20713642
000030 59 06 31 bc 90 df d1 be 15 31 8a bd 82 1f c6 3e
       -0.010804736 -0.40990877 -0.06747643 0.38695914
000040 97 de 11 3e c5 97 ea 3e 3e c6 ea 3e 8c 7a 16 bf
       0.14245068 0.45818916 0.45854372 -0.5878074
000050 72 61 1e bf b5 52 9c bc f4 36 18 3e 9a 75 fd be
       -0.6186744 -0.019082407 0.14864713 -0.49503785
000060 92 87 28 3e 3e 2f 30 bf c6 10 13 be ae 8f 2a 3f
       0.16457966 -0.68822086 -0.14361867 0.6662549
000070 46 dc 19 3f d7 74 cf 3d 96 ed 68 be 9d f8 0b bf
       0.60101736 0.10129707 -0.22746882 -0.5467623
000080 76 85 c5 3d a9 18 30 bf 87 b1 38 3e 89 1f 54 3d
       0.09644596 -0.6878763 0.18036471 0.051787887
000090 9b 6d a3 be 91 65 ad 3e 88 c3 36 3e 48 bf 55 bd
       -0.3191956 0.33866552 0.17848027 -0.052184373
0000a0 62 43 19 3e 62 9e bc bd 28 eb ce 3e 25 42 1b 3e
       0.14967111 -0.092098966 0.40413785 0.15161951
0000b0 18 47 2d bf 22 b1 e4 3e 6c 57 16 bf 70 61 2a bd
       -0.67686605 0.44666392 -0.58727145 -0.04159683
0000c0 b4 a0 27 bf bb d7 0a 3f fd 16 2f bf 99 37 2e 3f
       -0.6547959 0.5423543 -0.6839445 0.68053585
0000d0 8d 4a ba 3e b1 d8 d7 be a9 fc b0 be 31 ac 08 3f
       0.36385003 -0.4215751 -0.34567764 0.53387743
0000e0 a1 b1 52 3e 18 c9 ae 3e 64 59 a9 be 97 b4 c1 be
       0.20575573 0.34137797 -0.33076012 -0.37833092
0000f0 8f 61 74 be 09 bb 90 be 31 7c f6 3e 48 64 34 bf
       -0.2386534 -0.28267696 0.48141626 -0.7046552
000100 42 70 0d bf 5f 66 33 bf a2 4b 5c be fd 49 f5 be
       -0.55249417 -0.7007808 -0.21513227 -0.4790801
000110 43 a8 17 3f cd 6a c7 be 77 bd 56 be b0 d4 99 be
       0.5924112 -0.3894867 -0.20970713 -0.3004508
000120 62 19 36 3f 28 0e bb 3e b6 04 84 3e e5 28 14 3f
       0.7113248 0.36534238 0.25784844 0.578749
000130 e8 d9 2e bd 91 7c b2 3d 36 cd bc be b7 d9 2f 3f
       -0.04268828 0.087151654 -0.36875314 0.6869158
000140 da 44 62 3e 7d a3 2e be ae a0 6e be ee 7a 24 be
       0.22096577 -0.17054553 -0.23303482 -0.16062519
000150 f8 38 90 3d 08 d8 e1 be 90 e1 e7 3d f8 37 1c 3f
       0.07042116 -0.4411013 0.113223195 0.610229
000160 6a 7a 03 3f 4f a2 f1 be 0a 14 b7 3d 24 ed b3 be
       0.51358664 -0.47194144 0.08939369 -0.3514186
000170 56 da e6 be f6 52 2b bf cd c2 ed be 7e fc 0b 3e
       -0.45088452 -0.66923463 -0.46437684 0.13670537
000180 b9 b6 10 3f f9 33 dc 3e cc b4 b5 3e 2c 68 02 bf
       0.5652881 0.43008402 0.354895 -0.50940204
000190 30 95 48 3e 57 ed 9f 3e 66 81 ab be 96 fe 8a 3e
       0.1958816 0.31235763 -0.3349716 0.2714736
0001a0 37 6b 35 bd c5 b8 71 3e 29 33 be 3e e8 2a 05 3f
       -0.0442917 0.2360564 0.37148407 0.52018595
0001b0 47 fb a6 be 8c 7f 92 3d 81 53 2b 3f 88 1e fd 3e
       -0.32613584 0.07153234 0.6692429 0.49437356
0001c0 92 d4 e0 be 58 bc 41 3d 67 06 e2 3e de 84 81 be
       -0.43912178 0.04729876 0.4414551 -0.25296682
0001d0 82 87 7d bd 72 64 ce 3e fc 5d 7f 3e 2b e3 2e 3f
       -0.06189681 0.4031101 0.24938196 0.6831538
0001e0 8d ef 9a be 03 db 59 3e 78 54 31 3f 69 1f 05 bf
       -0.30260888 0.21274953 0.69269514 -0.52001053
0001f0 46 25 03 3d 72 1b 57 3e a5 6e 85 be cd 6a 21 bf
       0.03201797 0.21006563 -0.26060978 -0.6305359
000200 e2 fd 02 3e 76 88 02 bf 91 9c 14 bf dd 4a ad be
       0.12792161 -0.5098947 -0.580514 -0.3384618
000210 d3 6c b6 bd fd 6f ed be 6c 81 b9 be eb 1c 02 bf
       -0.08907475 -0.46374503 -0.36231554 -0.50825375
000220 7d 29 2d 3f 35 41 af be ce d5 60 be 23 d2 60 3e
       0.6764143 -0.34229437 -0.2195656 0.21955161
000230 50 dc 07 bf 3b f7 fd be 3a 91 c6 3d 13 f1 04 3f
       -0.53070545 -0.49602684 0.096956685 0.5193035
000240 fb d5 31 bf b6 fb 58 3d fb 41 bc be b4 83 09 3e
       -0.69467133 0.052974425 -0.3676909 0.13429147
000250 8d 4a 01 bf 18 68 ac 3e aa 0c 0b 3f eb 63 8c bc
       -0.5050438 0.33673167 0.543162 -0.017137488
000260 f5 2b 6f be 4f ce 29 3f 99 56 63 be 80 1a 1f be
       -0.23356612 0.66330427 -0.22201003 -0.15537453
000270 f5 c0 17 3f a0 bf a4 be 9d f4 ad bd c7 49 f5 3e
       0.59278804 -0.32177448 -0.08493922 0.4790785
000280 bd d7 ec 3e 37 f2 2f bf 27 db 10 be d8 e1 c2 3c
       0.46258345 -0.68728966 -0.141461 0.023789331
000290 3c c5 96 be 50 ff bd be 30 cc 23 bf af bf bf 3e
       -0.29447353 -0.3710885 -0.6398344 0.3745093
0002a0 7f b9 c5 be 47 13 89 be ba e8 8c 3e c5 65 05 3f
       -0.38618085 -0.2677252 0.27521306 0.52108413
0002b0 fd 7e 0e bf 9a f9 9f 3e 13 11 bc 3e 89 15 28 3f
       -0.5566252 0.31245118 0.36731777 0.6565786
0002c0 80 1b a5 3e f8 73 ae be be b6 78 be 56 fa e1 3e
       0.32247543 -0.34072852 -0.2428846 0.44136304
0002d0 0a ad d1 be 8f a6 aa bd ea ae 31 be 0b 81 16 bf
       -0.4095233 -0.0833255 -0.1735188 -0.58790654
0002e0 be 1e a6 3d c4 e0 c6 be f4 f8 27 be 6e 21 7a 3e
       0.08111332 -0.38843358 -0.16403562 0.24426815
0002f0 2c 88 18 3e e6 22 27 3f 3b 2d 0c bf 99 b3 29 3f
       0.14895695 0.65287626 -0.54756516 0.6628967
000300 59 dc aa 3e 01 55 3a be 05 71 ef be 4d f8 02 3e
       0.33371237 -0.18196489 -0.46765915 0.12790032
000310 27 00 be bd 7d 9d f7 bd 9c c0 98 3c 5b c0 12 bf
       -0.09277373 -0.120905854 0.01864653 -0.5732476
000320 e3 25 0d bf 9c e6 fe be 30 85 00 3f d7 8b a5 3e
       -0.55135936 -0.49785316 0.5020323 0.32333252
000330 b2 69 16 3f 3e 4e 8b 3e 07 65 97 3e d8 be e4 3d
       0.5875503 0.27208132 0.29569265 0.11169213
000340 78 b6 19 3f 25 de 68 3e 3f f4 8e 3e d4 c4 23 3f
       0.6004405 0.22740991 0.2792072 0.6397221
000350 60 23 13 3f ee 40 19 bf 36 ce 0d bf f5 e5 c1 3e
       0.5747585 -0.598647 -0.5539278 0.37870756
000360 82 34 d7 be 7f e7 0f bf 1e b0 1c bf 4f 87 f9 3e
       -0.42032248 -0.5621261 -0.61206234 0.48736045
000370 1b e9 91 3e bb 3e d8 3e 5c 6d 37 be 29 52 da 3e
       0.28498158 0.4223536 -0.17912811 0.42640808
000380 84 29 d4 3e c1 c9 f9 3e 8b 00 15 bf a7 91 31 3f
       0.41437924 0.4878674 -0.58203954 0.6936287
000390 b0 08 34 bf ca 8a 94 be 7a 84 36 3e 41 5c 03 bf
       -0.70325756 -0.29012138 0.17823973 -0.51312643
0003a0 59 a5 5c be 1b 5b 2d 3f 61 fc 8c 3e 1c 77 e4 be
       -0.2154745 0.6771714 0.275363 -0.44622123
0003b0 ca 5d e8 be 69 71 7d 3e 3f d6 69 3e 68 a4 d5 3d
       -0.45384055 0.24750294 0.22835635 0.10431749
0003c0 2e da 1f bf 32 50 0f bf 57 41 f1 3e 69 a8 ed 3e
       -0.6244229 -0.55981743 0.47120163 0.4641755
0003d0 05 7d c5 bc de 1e b4 3e 1e 01 f8 be d8 19 04 3f
       -0.024107466 0.351798 -0.48438352 0.51601934
0003e0 97 ae 23 3f d0 07 b8 3e 1c 19 1a bf 43 49 d7 be
       0.6393828 0.3594346 -0.60194564 -0.42048082
0003f0 3c 90 f6 bb d4 f8 03 3f 57 b8 0f 3d 20 c1 7d be
       -0.0075245183 0.51551557 0.03508791 -0.24780703

fc1.weight f4 [256, 512]
000000 2c 98 74 3d c4 f5 69 bd 8f bc 17 3d ea ea d1 bd
       0.059715435 -0.057119146 0.037045058 -0.102498844
000010 4d 5a a8 be 4f 0c c6 bb ce 52 b8 3c c7 a4 59 3b
       -0.32881394 -0.006043948 0.022500422 0.0033209787
000020 d6 19 80 be 7d aa 3b 3c 00 3b 2d 3d a8 81 4b be
       -0.2501971 0.011454222 0.042292595 -0.19873679
000030 6b 82 c9 3d 3e 38 de bb 84 64 5f be ee 9f 10 be
       0.098393284 -0.006781607 -0.21815687 -0.14123508
000040 70 3c 85 bd 14 29 23 be 6b b5 c5 3d 4a cb c4 bd
       -0.06505668 -0.15933639 0.09653743 -0.09609087
000050 5b 8f 02 be c1 d0 73 3c 31 d5 96 3d f3 45 58 bc
       -0.12749998 0.014881314 0.07364882 -0.013200271
000060 2a a9 32 be 67 fa d3 3d ec 9d 4c 3d b0 9e ff bc
       -0.17447343 0.10350495 0.049955294 -0.031203598
000070 09 78 19 3d 59 74 e6 bd 38 06 8b 3d ba 50 48 bb
       0.03746799 -0.1125266 0.067882955 -0.0030565695
000080 b8 91 44 be 4b 53 fb ba 82 23 61 b9 96 6a 5b be
       -0.19196212 -0.0019174604 -0.000214709 -0.21427378
000090 f5 f0 5c be 0b b5 eb 3b 91 7a 71 be 7a 25 28 3d
       -0.21576293 0.007193213 -0.23581912 0.041051365
0000a0 8f bc c8 bd c2 20 94 3d 2c 65 a5 3c 9a 98 33 3d
       -0.0980159 0.072328106 0.020189844 0.043846704
0000b0 7e f2 d7 3b a1 cb eb 3c 83 27 fb bd af 3e b8 be
       0.0065901866 0.028783621 -0.12263396 -0.35985324
0000c0 4f 3c 5d be 07 a8 19 bd c2 31 3a bc 94 a7 2c be
       -0.21605037 -0.03751376 -0.011364402 -0.16860801
0000d0 fa 75 10 3d 6f fa d7 bd 66 a5 45 be b2 29 d4 be
       0.03526876 -0.10545813 -0.19301376 -0.4143806
0000e0 5f b0 a3 3d 40 54 3c bd 04 5b 82 3d f2 ef 7e bc
       0.079926245 -0.045978785 0.06365016 -0.015560137
0000f0 f1 91 38 bb b9 96 31 bb 22 c4 68 be dc ee ef bd
       -0.002816316 -0.0027097894 -0.22731069 -0.11715481
000100 0b 38 a2 bb 4c 69 23 3b e8 67 99 be 92 71 8a 3b
       -0.0049505285 0.0024934588 -0.29962087 0.0042249644
000110 b9 17 5a 3d 14 b3 b6 bc eb 44 19 bd f2 95 99 bc
       0.05324528 -0.022302188 -0.03741924 -0.018748257
000120 db 0b 23 bc 53 f2 2c bd f8 29 12 bd d0 c8 39 bb
       -0.009951557 -0.042223286 -0.035684556 -0.0028348453
000130 79 4d 31 be f8 50 8c bc 4a bf 58 3d e6 72 bc 3c
       -0.1731471 -0.017128453 0.052916802 0.023004007
000140 d0 2c 92 be cf ac 09 bd a1 43 bb bd f7 bd d4 bd
       -0.28549814 -0.03361207 -0.091437586 -0.103877954
000150 33 71 2a 3d 8d 2c 08 bd 09 e7 b9 bd 0e 25 38 bd
       0.04161186 -0.033245612 -0.090772696 -0.044957213
000160 91 cf 04 3d ca 95 47 3d 8d d9 f0 bd 2c a9 91 be
       0.032424513 0.048726834 -0.117602445 -0.2844938
000170 fc 69 51 bd ff 39 16 be bb 4f c5 3b 3b fd cc bd
       -0.051126465 -0.14670561 0.0060214675 -0.100092374
000180 1b 36 23 3d c9 39 3b be 57 5f 6c 3d 33 ae ab 3b
       0.03984652 -0.18283762 0.05770811 0.005239272
000190 e7 e4 1e be d5 6c 95 3d dc ea fc 3c 12 1a 12 bd
       -0.15517007 0.07296149 0.030873708 -0.035669394
0001a0 d4 e9 2f 3d a4 84 84 3c 12 6d ad 3d fd f7 ae 3b
       0.042947605 0.01617653 0.08468069 0.005339621
0001b0 d8 48 bf 3c d6 80 64 bd b5 15 d5 bc ed 33 29 3d
       0.023350164 -0.05578693 -0.026011327 0.041309286
0001c0 82 28 1b bc e4 23 0b 3d 6a 03 c1 be 06 4c 19 3d
       -0.009470107 0.033969775 -0.37697917 0.037426017
0001d0 60 7e 9f 3c 44 75 e3 3c 17 29 a5 bc 81 32 70 bd
       0.01946944 0.027765878 -0.020161195 -0.058641914
0001e0 01 5e 31 3d e6 b9 ab bc cb f2 9b 3d 93 05 e4 be
       0.04330254 -0.020962667 0.076146685 -0.44535503
0001f0 52 ce a2 3c 0d 64 c0 be 86 f6 85 be e0 5d b8 3c
       0.019873772 -0.37576333 -0.26164645 0.0225057
000200 fd 2c 0c be db cd 4f 3d b1 b1 48 be 19 43 7b bc
       -0.13689037 0.05073343 -0.19599034 -0.015335822
000210 fd 89 ef bd c4 69 7a 3d b6 76 9a be 74 80 2b 3b
       -0.11696241 0.061136022 -0.30168694 0.0026169093
000220 2c a4 03 be fc 39 ef be fd a0 26 3d 1e 5e 9c be
       -0.12855595 -0.46723926 0.040680874 -0.30540556
000230 d3 81 39 be e9 b9 7b bc e8 49 24 be 3d 43 18 3c
       -0.1811593 -0.015364149 -0.16043818 0.009293375
000240 a5 b3 ab bc 00 2c c4 3c 8e c7 9b 3d 09 2c 65 bc
       -0.020959685 0.023946762 0.076064214 -0.01398755
000250 33 5a 1f 3d d4 f7 22 3c 71 65 23 3d aa 78 8d be
       0.03890438 0.009946782 0.039891664 -0.27631122
000260 fa e4 8d bd 15 f9 eb bc 04 81 93 be d1 fd a0 3c
       -0.069284394 -0.028805295 -0.2880937 0.01965228
000270 63 db ea bc 68 bf 93 bc a7 c8 12 3d a7 98 57 be
       -0.028669065 -0.018035606 0.03583589 -0.21054326
000280 21 5a 05 be 96 ba 52 bc 72 4f c9 bb 80 bd 01 bd
       -0.13022663 -0.012861868 -0.006143504 -0.031674862
000290 ab aa 15 3d 49 e8 12 3d 22 02 46 3b fd 46 37 be
       0.036539715 0.035866056 0.0030213674 -0.17898174
0002a0 0d 4b e5 be f8 70 d1 bc 88 bb 4b bc 87 31 c2 bc
       -0.44783822 -0.025566563 -0.012434848 -0.023705257
0002b0 9a 4d 7e be 13 82 b9 bd f3 25 df bd 46 58 38 bd
       -0.2483429 -0.09058013 -0.1089591 -0.04500606
0002c0 9d 47 83 3d 66 92 5b bc 72 98 03 3c a5 8a 2c 3d
       0.064101435 -0.013401603 0.008031951 0.04212441
0002d0 f7 cc da bc 29 f6 1c 3c 44 33 f0 be a9 98 11 3b
       -0.026709063 0.0095801735 -0.46914113 0.0022216237
0002e0 84 aa 23 3d b5 56 23 3d 04 6d af bb 95 99 40 3c
       0.03995754 0.039877612 -0.005353572 0.011755367
0002f0 c1 db 20 3c 0f 9a a7 bd 3a ff da bc c5 6d 07 be
       0.009818018 -0.08183681 -0.02673303 -0.13225468
000300 a0 8e 3d bd c4 d6 0f bd 28 5a 22 3d 2c bc 4b 3d
       -0.046278596 -0.035116926 0.03963676 0.04974
000310 68 8a f6 3a bc 21 9a 3d 79 b0 0b 3d e7 5c ed 3c
       0.0018809559 0.075259656 0.034103844 0.028974963
000320 aa 5f 6a 3d 9b 2b 1e bc af 6b b7 bb d5 e9 84 bc
       0.05722014 -0.009653951 -0.0055975537 -0.016224781
000330 88 ed f8 bd 98 8d 27 bd 96 3d 0a 3d 0c 04 81 3c
       -0.121546805 -0.04090652 0.03375014 0.015749
000340 63 d9 c7 be b9 52 fb 3c 41 be ca be d5 c4 dd 3c
       -0.3903304 0.030679094 -0.39598277 0.027071396
000350 91 a8 87 bd f5 56 e4 bc 7d be 86 be a8 9c 6d 3d
       -0.06623948 -0.027873496 -0.26317206 0.058010727
000360 88 74 50 be fe e2 1e bc 4b 57 ab 3b 5a 21 af bc
       -0.20356953 -0.009697674 0.005228912 -0.021378208
000370 16 8a 99 3d 07 1b 24 3d 99 fc ab bc 12 a5 35 be
       0.07497041 0.040064838 -0.020994471 -0.1773875
000380 32 f5 8f bd 7e a7 07 bc 1e 98 7b be 18 2a 46 bd
       -0.07029189 -0.008279679 -0.24569747 -0.048379987
000390 ca c0 ab 3b eb 03 05 bc a3 6b a4 3c 93 d6 02 bd
       0.005241488 -0.00811861 0.020070856 -0.031942915
0003a0 20 f7 7c 3d b4 7f 97 3c 8d ab 0f be b0 51 0d 3d
       0.061759114 0.01849351 -0.14030285 0.03450173
0003b0 ba 53 59 be 00 81 c2 3c 06 82 89 3d 65 69 b8 3c
       -0.21223345 0.023743153 0.06714253 0.022511194
0003c0 a6 d0 66 bd d6 7e 0f 3d 9d 6c 8c 3c b4 cf 1a 3d
       -0.056351326 0.03503307 0.017141635 0.037795737
0003d0 67 66 2c bc cc d7 b2 3d f9 d7 e4 bd 5f a4 80 3c
       -0.0105224615 0.08732566 -0.11174006 0.015703378
0003e0 30 b1 fa 3b 53 21 89 be 8e 2f b2 3c a2 38 31 3c
       0.007650517 -0.26783237 0.021751191 0.010816725
0003f0 c1 43 84 3c 8c 86 4b 3d 39 2a 50 bc bb f9 f6 bd
       0.016145589 0.04968886 -0.012705379 -0.12059351

fc1.bias f4 [256]
000000 e2 65 23 bc 23 37 85 3d e4 c4 24 3d 5d 18 7e 3d
       -0.009973021 0.06504657 0.040226832 0.062034953
000010 19 91 c3 3c 7f da b5 3c 87 c9 e7 bb e6 b0 bf bc
       0.023872899 0.022198914 -0.0070735845 -0.023399781
000020 e3 12 da 3b dc ca 43 3d cf a8 c1 3c aa ae 81 39
       0.0066550835 0.047800884 0.023640065 0.00024734932
000030 f6 ea 8d bb 00 1d 29 3d 86 e9 f8 3c 2c 61 20 bc
       -0.004330988 0.041287422 0.03038479 -0.009788793
000040 11 d6 03 bd 06 44 9e 3b f6 62 b3 bb d5 8f be bb
       -0.03218657 0.0048298864 -0.0054744435 -0.005815486
000050 18 4a 7d 3c b4 fc 97 3c f0 bc 92 b9 c0 70 b4 3c
       0.01545956 0.018553115 -0.0002798806 0.02202642
000060 2a e9 b5 3b 98 b2 08 bd 07 47 09 3c 6e f6 1a 3d
       0.005551477 -0.033373445 0.008378751 0.03783267
000070 3f 83 ef ba 9d 5c 0d 3d 9f 85 c1 3b b2 55 8f 3c
       -0.0018273367 0.03451215 0.0059058215 0.017496917
000080 3a 78 31 bd bc df d9 bb 80 b8 5d bc 08 d7 d4 bb
       -0.043327548 -0.0066489857 -0.013532758 -0.0064953603
000090 44 fe 9f b9 81 69 7c 3d 73 0b 16 3d 51 f7 34 bc
       -0.00030516286 0.061624054 0.036632013 -0.011045293
0000a0 65 e5 76 bc 95 56 83 3d 97 d2 1c 3c b9 f0 97 bc
       -0.01506934 0.064129986 0.009571693 -0.018547403
0000b0 e8 1f 1e 3d 13 88 f5 3c 45 69 65 3c 43 94 13 bb
       0.038604647 0.029972112 0.014002149 -0.002251879
0000c0 10 9c 94 3c 41 0e 0a bd 7c 35 2a bd 2d f1 90 3c
       0.018140823 -0.033705 -0.041554913 0.017693127
0000d0 47 7f fd 3c 9a dd 9e 3c 7d 74 3e bc 54 1a fa bc
       0.03094448 0.019392777 -0.011624453 -0.030530132
0000e0 2d b7 02 3c 9a 1f 61 bb 60 ea 00 3d 9f 46 2c 3d
       0.007978243 -0.0034351111 0.031473517 0.042059537
0000f0 44 9c 47 3c 66 67 c8 bc b1 88 f2 bc 20 0a 1f bc
       0.012183253 -0.024463367 -0.029606195 -0.009707004
000100 a5 1c 99 3b 88 c5 37 bd a7 ed 23 bd 35 0e 35 bd
       0.004672604 -0.044866115 -0.040021565 -0.044203002
000110 ef 1e ad bc 86 82 e6 3c 50 a1 72 3d 4a 33 a7 bc
       -0.021132914 0.02813841 0.05923587 -0.020410199
000120 cd 77 5f 3d 63 d7 9e 3d 94 f3 bd 3b 85 f9 92 3d
       0.05455761 0.077559255 0.005796859 0.07176498
000130 aa 8e c4 3c 1c 5f 43 bc 26 a1 07 3a c2 72 e1 3c
       0.023993809 -0.011924531 0.00051738543 0.027520541
000140 a9 18 b0 bb c2 a8 38 bc a0 73 ad 3c 0d 6d 8d 3d
       -0.0053740335 -0.011270704 0.021173298 0.069055654
000150 85 7d 6e 3b 8a 5f f3 bc 8f 70 fc bc 0b 5a 08 bd
       0.0036390733 -0.029708643 -0.03081539 -0.033288997
000160 ad 25 9b 3d 72 05 03 3d 81 6e df ba 3a 0b 00 bd
       0.075755455 0.031987615 -0.0017046483 -0.031260706
000170 1e 44 10 bd c5 bc b6 39 bc b5 aa 3c cf e9 1a 3d
       -0.03522121 0.0003485439 0.02083861 0.037820634
000180 b7 fd 65 bc d9 b8 90 3d d9 55 d6 bb 02 fa 84 38
       -0.014037541 0.07066507 -0.0065409956 6.340818e-05
000190 8c 42 be bc 16 90 42 3d 56 8d 29 bd a6 14 3f bd
       -0.023225091 0.047500692 -0.041394554 -0.04665055
0001a0 a7 42 44 bc ad df d4 3c b3 e1 b1 ba 20 08 de bc
       -0.011978782 0.025985563 -0.0013571292 -0.027103484
0001b0 ff d8 1b 3d 25 91 fa 3c 61 f7 5a 3d 06 4b 88 3c
       0.03804874 0.030586788 0.053458575 0.016637336
0001c0 41 bf ba 3c ba 45 a6 3d e5 16 c1 3c 78 46 c5 3c
       0.022796275 0.08118768 0.023570487 0.024081454
0001d0 95 b3 a1 bc 6d 38 0d 3b 3d 4b 30 3d e2 6f 1d 3d
       -0.019738952 0.0021548525 0.043040503 0.038436778
0001e0 7d 87 45 bc 13 d6 f2 bb 17 76 dd bc 35 34 9c 3d
       -0.012056229 -0.0074107735 -0.027033849 0.07627145
0001f0 31 5e 8b 3a fc c3 b4 3c 0c 23 0f 3c 22 ff 30 bd
       0.001063293 0.022066109 0.008736383 -0.043212064
000200 7b 81 df 3c c3 37 f0 bc 64 46 a3 3d cf 04 dd bc
       0.02728342 -0.029323464 0.0797241 -0.026979832
000210 73 e5 eb 3c 9d 2e ae 3c 95 5c 26 bd 3c f0 1f 3c
       0.028795933 0.021262461 -0.040615637 0.009761866
000220 28 1d 01 3d 16 ba 35 bd f7 1a a5 3d a8 a6 a6 3b
       0.031521946 -0.04436692 0.08061784 0.005085785
000230 ee db fb 3c 87 fc 03 bd 84 f0 30 3d b0 0d 44 bc
       0.03074452 -0.03222325 0.043198124 -0.011966154
000240 2b cc d0 3c f7 7a 0d 3c 2d 05 b8 bc 43 fa 26 3c
       0.02548798 0.008635274 -0.022463406 0.010191503
000250 f2 bd 04 3d c6 33 87 3c 83 ca 1a 3d 35 23 29 bd
       0.03240771 0.01650418 0.037790786 -0.04129334
000260 85 7b 99 3c 59 f3 14 3d 49 d4 68 bc af 92 1b 3d
       0.018735657 0.036364887 -0.014210769 0.037981685
000270 9a ad cd bc d7 56 7f 3b 79 bc e2 3d e9 f9 56 3c
       -0.025107194 0.0038961673 0.110711046 0.013121107
000280 75 5c ed bc b3 ae cf 3c 2f 69 1b bd ce d9 d2 3b
       -0.028974751 0.025351858 -0.037942108 0.0064346557
000290 01 7d 80 bc 04 e1 95 3c b8 de 1c 3d 8c c5 4b 3c
       -0.015684607 0.018295772 0.03829834 0.012437236
0002a0 76 38 2c bd 70 a1 8f 3d 04 ea 05 3d b6 88 f8 bc
       -0.042046033 0.07013214 0.032693878 -0.030338626
0002b0 fa 38 20 bd 4d d1 48 bc 8b 51 20 3d ec e5 04 3d
       -0.039116837 -0.012256932 0.039140265 0.032445833
0002c0 44 73 0e 3d 0c ba 37 bc e4 8a 45 bd e8 a4 41 bd
       0.034777895 -0.011213791 -0.04822816 -0.047276407
0002d0 7d 16 9b 3c c4 d1 ca 3c f8 37 cc 3c e6 24 95 3d
       0.018931622 0.024758227 0.024929032 0.072824284
0002e0 6c af 04 bd 89 eb 27 3d c7 45 cb 3c 53 3f 68 3d
       -0.032393858 0.04099611 0.024813546 0.056701016
0002f0 bf 04 c1 bc e9 17 7c 3d c5 08 2b 3c ae 68 10 3d
       -0.023561833 0.06154624 0.010439103 0.03525608
000300 5e 0f 49 bc c1 cf 09 bd 77 fd 50 3c 18 9c 25 39
       -0.01227173 -0.033645395 0.012755743 0.00015793776
000310 e2 b9 72 3d b7 3f e8 bc 0a 60 53 bb 05 97 1c 3d
       0.059259303 -0.028350694 -0.0032253289 0.03822996
000320 a8 86 88 3d 11 ff 14 3c 08 d0 fd 3c 32 3e f4 3c
       0.06666309 0.009094016 0.030982986 0.029814813
000330 30 ba a6 3b 18 da 98 bc 7e f6 b6 3c 86 dc 2c 3d
       0.0050881132 -0.018658683 0.022334334 0.042202495
000340 3a 9b 6b 3c e0 c9 7c 3d eb 04 fc 3c d5 8e a4 bc
       0.014380271 0.06171596 0.030764064 -0.020087639
000350 94 29 48 3b 37 e6 c9 bc 10 c6 25 bd a3 74 84 3c
       0.003054236 -0.024645908 -0.04047209 0.016168898
000360 84 10 57 3c 01 c2 a6 bc 0b ba 3b bd 72 52 fd ba
       0.013126496 -0.02035618 -0.04583172 -0.0019326939
000370 2a 28 8c 3c a8 29 26 3d 21 94 2f 3c c0 b9 9b bb
       0.017108995 0.04056707 0.010716469 -0.0047523677
000380 c9 1b 2a bd 96 a3 65 3d 3e 71 f5 3c 74 9a c6 bb
       -0.041530404 0.05606421 0.029961225 -0.0060608927
000390 7d df 7f 3c 8d f7 06 3d a4 f9 d8 bc 27 7f ae bc
       0.015617249 0.032950927 -0.026486225 -0.021300865
0003a0 0e 80 78 3c 11 a9 4b 3c e4 9b 8a bb b5 8c 8e bc
       0.015167249 0.012430445 -0.0042300094 -0.017401079
0003b0 10 56 b8 bc 55 48 0a 3d 5b 77 d4 bc b7 31 e6 3a
       -0.022501975 0.033760387 -0.02593582 0.0017562424
0003c0 8a fc a9 bc 0c 64 cc bc a8 ac 25 bb 08 7c 31 3c
       -0.020750303 -0.02495005 -0.0025279913 0.010832794
0003d0 37 77 e7 3c ef be 15 3c bb b2 26 3c 81 8e 9d bc
       0.028255088 0.00913976 0.010174449 -0.01923299
0003e0 82 b5 01 bd a6 2d d2 3c 24 89 da 3c 13 e2 20 3c
       -0.03166724 0.025656532 0.026676722 0.009819525
0003f0 8c c3 ca 3c f0 07 b8 bc 71 ec f1 ba 71 40 39 bd
       0.024751447 -0.022464722 -0.0018457306 -0.04522747

fc2.weight f4 [256, 256]
000000 b8 fc 2a bd a9 4c e0 3b be d6 0f bc dd 80 2b bd
       -0.041744918 0.006845076 -0.008779226 -0.04187094
000010 18 e6 e0 3c cd a4 d0 ba 3d 89 ee 3b 5a 0b 34 3d
       0.027453467 -0.0015918255 0.0072795437 0.04395614
000020 23 bf 82 bd d6 12 47 bd 0c a1 8d bc 02 7e ce 3b
       -0.06384113 -0.048601948 -0.017288707 0.0063016424
000030 1c 02 46 bd a8 ba 2b bc 00 33 8f 39 3e 21 03 3d
       -0.048341855 -0.010481514 0.00027313083 0.032014124
000040 30 18 de bc 00 09 52 3a 28 c0 37 3c 07 31 1b bc
       -0.027111143 0.00080122054 0.011215247 -0.009472138
000050 25 8b 99 3c 48 01 4c 3d c3 bd 8c ba 84 44 46 bd
       0.018743107 0.04980591 -0.0010737706 -0.048405185
000060 f9 53 b9 bc b8 b1 66 bd d4 8a 46 bc 5a 88 15 3d
       -0.02262305 -0.05632183 -0.01211806 0.036506988
000070 b2 af d6 ba 7a 43 ea bc 21 4a 56 bd 3c c2 4f bd
       -0.0016379266 -0.028596628 -0.05231679 -0.050722346
000080 bc 26 a3 3c d3 1e 3c bb 58 36 25 bc fc e8 59 3d
       0.01991593 -0.0028704896 -0.010083757 0.053200707
000090 bd c5 19 3d ec 1f 34 bc 28 75 f2 3c d5 12 3e 3c
       0.037542094 -0.010993939 0.02959688 0.01160117
0000a0 96 a7 11 3d 7a af f4 3c 7b 26 76 3b a1 b5 39 bd
       0.035560213 0.02986883 0.0037559557 -0.04533923
0000b0 5b d3 7d bd 24 48 48 3c 60 d0 47 3b a2 93 cd bb
       -0.061969142 0.012224231 0.0030489191 -0.0062737027
0000c0 aa 40 e2 3c 76 47 2d 3d 4e 76 3f 3d a0 81 09 3d
       0.027618725 0.04230448 0.046743684 0.033570886
0000d0 44 6d ca bc f0 be 67 bd d5 c9 ed 3c 28 78 34 3c
       -0.024710305 -0.056578577 0.029026905 0.011014976
0000e0 05 b5 21 bd 21 de cb bc 10 9f 88 3b bc 3d 22 3d
       -0.039479274 -0.024886193 0.0041693524 0.039609656
0000f0 a4 e4 70 3d d6 9f ad 3c fc 64 f6 3c 2e d1 56 bd
       0.0588118 0.02119438 0.03007745 -0.052445583
000100 62 29 28 bd 82 b7 56 bd 62 e4 01 bd 40 52 2d 3d
       -0.04105509 -0.0524211 -0.031711943 0.042314768
000110 f6 0f 9a 3c 0c 0d 8f 3c 3c de bc bb 90 9f 53 bd
       0.018806439 0.017462276 -0.005763797 -0.051665843
000120 37 8a 2e 3d 01 8f 44 3c e0 02 05 3c 2d 8f 51 bd
       0.04261228 0.011996985 0.008118361 -0.051161934
000130 e3 88 0d 3c 94 1e cf bc 00 fe da b9 90 a5 2e bc
       0.008638593 -0.025283135 -0.00041769445 -0.01065959
000140 6a bf 79 3d a4 49 f6 bb 02 0c 45 3d e9 82 55 bb
       0.060973562 -0.007516103 0.048107155 -0.003257925
000150 ba 74 3f 3d c8 2c 7f bd 1a 58 e2 3c a0 30 70 bd
       0.04674218 -0.062298566 0.0276299 -0.058640122
000160 83 f4 a8 bc e0 a2 5e bd df 3c d3 bc 8d d9 17 3d
       -0.020624405 -0.05435455 -0.025785862 0.037072707
000170 36 71 2c bd 6c 76 d1 3c b6 c3 12 3d 62 c5 23 bd
       -0.042100154 0.025569163 0.035831176 -0.03998316
000180 db cc 57 bb ae ba 86 bd 0e 38 69 3d c1 c3 0b 3d
       -0.00329285 -0.06578575 0.056938224 0.034122232
000190 7f f0 b7 3c 85 6a a3 3c bf 6b 53 bd e0 e1 43 3c
       0.022453545 0.019948253 -0.051616427 0.011955708
0001a0 f4 09 b3 3c bd 77 51 bd 52 04 78 bd 68 08 9e 3c
       0.021855332 -0.051139582 -0.060550995 0.019291118
0001b0 fc f2 6c bd 70 8a 65 3c 49 71 80 bd 50 1f 90 bc
       -0.057848915 0.014010057 -0.062716074 -0.017593056
0001c0 47 3a 2d bd dc b3 0d bd b0 c6 4b bd 72 9b 4d bd
       -0.042291906 -0.034595355 -0.04975003 -0.050197072
0001d0 6a 81 27 bd d2 fe 70 3d 04 56 e3 bc 74 8e 34 3d
       -0.040894903 0.058836766 -0.027750976 0.044081166
0001e0 6b 3d cf bc 5c e3 0c 3d f0 4c 0a 3d 55 8b 6d bc
       -0.025297841 0.034396514 0.03376478 -0.014498551
0001f0 63 73 46 3d 11 39 44 3d d2 5c 45 bd a9 d3 89 bb
       0.048449885 0.047905985 -0.048184223 -0.00420614
000200 d0 80 cd bb 68 46 c8 3c ce 98 52 bd 6e 0d 90 3c
       -0.006271459 0.024447635 -0.051415257 0.017584529
000210 4c 34 df 3c ff 3f 2e 3d 5e ec 67 bd ae af 8f bc
       0.027246617 0.0425415 -0.0566219 -0.017539825
000220 b0 d5 89 3c a2 93 4d 3b 1b b2 28 bd 41 37 c3 3b
       0.016825527 0.0031368514 -0.04118548 0.0059575145
000230 bc 54 2e 3d 04 0b 3e 3d fb 0d 0c bc f8 d0 39 3d
       0.042561278 0.046397224 -0.008548255 0.045365304
000240 61 02 44 3d 36 ac 1a 3b 4c 68 66 bd 00 89 32 3a
       0.04785383 0.002360118 -0.05625181 0.0006810576
000250 a3 80 02 bd 0c 16 99 3c e2 a7 01 bd 30 21 39 3d
       -0.03186096 0.01868727 -0.031654246 0.045197666
000260 cd dc 2a bd cb 65 a9 bc 6f 07 11 bd d4 5b 8e 3c
       -0.04171448 -0.020678421 -0.03540748 0.017377771
000270 35 53 db 3c 85 c0 bf 3c ca 83 eb 3c 08 09 4e 3d
       0.026773075 0.02340723 0.028749365 0.05030158
000280 dc c6 5d 3d 29 23 80 bd d9 21 a6 bb 5d 74 86 3c
       0.054144725 -0.06256706 -0.005069953 0.016412908
000290 68 bc dd 3c fb 41 3c bd ce 66 4d 3d 1e 03 77 bd
       0.027067378 -0.04596136 0.05014687 -0.060305707
0002a0 e0 b5 0f bd 01 1d bb 3c 8f 22 af 3c a2 c0 30 bd
       -0.03508556 0.022840979 0.021378784 -0.04315246
0002b0 00 ac 38 bd 23 ae 8c bd 7c dc 98 bc 44 df e9 3c
       -0.045085907 -0.068691514 -0.018659823 0.028548844
0002c0 76 c4 24 bd 5c d1 90 3c b9 c9 fc 3c 2e 9d 1c bd
       -0.040226422 0.017677955 0.030857908 -0.038235836
0002d0 bd cb 98 bc 4c 26 19 3d 9c e3 a7 bc 19 43 7b bd
       -0.018651837 0.03739004 -0.020494275 -0.061343286
0002e0 00 8f 68 bc a8 d0 db bc 8a f7 3d 3d 93 37 16 bb
       -0.01419425 -0.026832893 0.04637865 -0.0022921308
0002f0 20 c8 dd bb bf b4 23 bd 10 0d 68 bc 90 bc b7 3c
       -0.0067682415 -0.039967295 -0.014163271 0.02242878
000300 2c 17 eb 3c fc be 78 3d b2 5d 05 bd 6c f9 f6 3b
       0.028697573 0.060729012 -0.032560058 0.0075370576
000310 b8 00 89 bd de 47 4a 3d 42 7a 94 bb 66 78 4f 3d
       -0.0668959 0.049384944 -0.004531176 0.05065193
000320 42 6b 73 bd 71 a1 cc bc 95 81 b4 bc 88 15 55 bc
       -0.05942846 -0.024979325 -0.022034446 -0.013005622
000330 73 68 6b bd ea 49 f4 3c 80 d4 18 3b b8 fe 6b bd
       -0.057472657 0.029820401 0.002332002 -0.057615966
000340 24 1a 97 bc a0 3e 38 bd 0c e0 bd 3c 40 48 b9 3c
       -0.018445082 -0.0449816 0.023178123 0.02261746
000350 ab b8 6a bc 3a 9c 5e bd 10 66 38 bc 10 b0 e8 3c
       -0.014326255 -0.054348208 -0.011254802 0.028404266
000360 75 ef 5b 3c 87 3d 40 bd 23 11 75 bd e0 e5 62 bd
       0.01342379 -0.046933677 -0.059830796 -0.055395007
000370 4d ff 3d bd ba 41 62 3d 23 83 fe bb 7c 22 d9 3c
       -0.046386052 0.055238463 -0.0077670976 0.026505701
000380 b6 d0 0d bd fa a8 4e 3d d0 02 27 3d b0 09 e3 bc
       -0.03462287 0.050454117 0.040774167 -0.02771458
000390 04 d7 8d bd 43 5f f5 3b c4 6b 48 3d b7 45 af 3b
       -0.069257766 0.0074881627 0.0489309 0.005348887
0003a0 42 84 15 3d 18 c6 7a bd dd 93 76 bd 70 6d 9c bb
       0.036503084 -0.061224073 -0.060199607 -0.004773788
0003b0 1c 66 74 bd 3a bb 02 3b 35 b4 ee 3c 1e fb bf bc
       -0.05966769 0.0019948022 0.029138664 -0.023435172
0003c0 1b 2b ff 3c 40 e6 fe 3a 60 92 80 3b f8 88 7e 3c
       0.031148484 0.0019447282 0.0039236993 0.015535586
0003d0 28 41 42 bc 58 b6 42 3d cc e7 21 3d ca 5f 2c bd
       -0.011856355 0.047537178 0.0395277 -0.04208354
0003e0 fc f6 96 bc 1c b7 20 bc 17 20 41 bd e4 4b 4a bd
       -0.018428318 -0.009809282 -0.047149744 -0.04938878
0003f0 79 2b 27 3d da 89 2b 3d e4 cf d8 3c d0 7a bb bc
       0.040812943 0.041879512 0.026466317 -0.02288571
