tmp/dqn/model.pt (torch, 170695 bytes, 6 tensors)

fc1.weight f4 [150, 14]
0	0xbf2f6777	-0.6851725
1	0xbedea5fd	-0.43486014
2	0xbed9cd42	-0.42539412
3	0xbf3d4894	-0.7393887
4	0xbf11a8c3	-0.56898135
5	0xbef2279b	-0.47295842
6	0xbecfd50c	-0.4059223
7	0xbee28c86	-0.44247836
8	0xbf47213a	-0.77785075
9	0xbf1f504a	-0.62231886
10	0xbf02879d	-0.5098818
11	0x3ec94afc	0.3931502
12	0xbf56f6f4	-0.8397057
13	0xbeb7719a	-0.3582886
14	0xbf27cb66	-0.65544736
15	0xbeef9e16	-0.46800297
16	0xbed19baf	-0.4093909
17	0xbf2e2bf1	-0.680358
18	0xbf457229	-0.7712732
19	0xbf31f102	-0.69508374
20	0xbf2f3637	-0.684421
21	0xbf2094ee	-0.6272725
22	0xbf338cbe	-0.7013663
23	0xbeba90ea	-0.36438686
24	0xbeb87046	-0.36023158
25	0x3eacaa61	0.3372374
26	0x3edcf1a5	0.4315311
27	0x3eb18eb7	0.34679195
28	0xbe5dfe97	-0.2167915
29	0x3e106788	0.14101994
30	0xbd7d8c78	-0.06190154
31	0xbdce4a0d	-0.10072718
32	0xbd48f2e9	-0.049059782
33	0xbdadb979	-0.08482642
34	0x3e295009	0.16534437
35	0xbe63ed89	-0.22258581
36	0x3e00c5b4	0.12575418
37	0xbe75b315	-0.23994096
38	0xbe651be2	-0.22373918
39	0xbe6c6036	-0.23083577
40	0xbe2e459a	-0.17018738
41	0x3d4b532a	0.04963986
42	0xbdefae6a	-0.11703189
43	0x3c498806	0.012300497
44	0xbe1012c1	-0.14069654
45	0xbe403b43	-0.18772607
46	0xbeff6297	-0.49879906
47	0xbee33442	-0.44375807
48	0xbe419e60	-0.18908072
49	0xbe99c2bd	-0.30031386
50	0xbd06587f	-0.03279924
51	0xbdaff814	-0.08592239
52	0xbec36056	-0.38159436
53	0x3e760296	0.24024424
54	0xbec7a6b6	-0.38994378
55	0x3ca0c146	0.01962341
56	0xbf6305a5	-0.8868049
57	0xbf483783	-0.78209704
58	0xbf686ca6	-0.90790784
59	0xbee629f8	-0.44953895
60	0xbf62c35d	-0.8857935
61	0xbf21ab7e	-0.631523
62	0xbf5a300f	-0.8522958
63	0xbf418f56	-0.7560934
64	0xbf4041ac	-0.7510021
65	0xbf332cad	-0.69990045
66	0xbf02eee6	-0.5114578
67	0x3f0aa18d	0.54152757
68	0xbf005810	-0.5013437
69	0xbf20971a	-0.6273056
70	0x3f66babf	0.901287
71	0x3e752084	0.23938185
72	0xbd87bb1c	-0.06627485
73	0xbe8558ba	-0.26044255
74	0xbf3c2ff5	-0.73510677
75	0xbf94a1f5	-1.1611925
76	0xbf165fdb	-0.58740014
77	0xbf87ae5f	-1.0600089
78	0xbd3983e7	-0.045291808
79	0x3f54056c	0.82820773
80	0xc10c7cf1	-8.780503
81	0x3e36eb01	0.17863084
82	0x3db510c2	0.08841087
83	0x3a90ceb6	0.0011047933
84	0xbf21cb83	-0.6320116
85	0xbf31dfae	-0.69481933
86	0xbec60d21	-0.38681892
87	0xbf38da67	-0.72208256
88	0xbed17f69	-0.4091752
89	0xbf59d6cd	-0.85093385
90	0xbf4ea95f	-0.8072719
91	0xbf32b432	-0.69806206
92	0xbebff551	-0.3749185
93	0xbed732d4	-0.42030966
94	0x3f487bb9	0.78313786
95	0x3f4660d9	0.7749153
96	0x3ee71ad4	0.45137656
97	0x3f0c6d19	0.5485397
98	0xbebf9397	-0.3741729
99	0xbf063c1a	-0.5243546
100	0xbf3e15ae	-0.7425183
101	0xbeb13e4a	-0.34617835
102	0xbedc4b5f	-0.43026254
103	0xbf4e7057	-0.80640167
104	0xbf524e3f	-0.82150644
105	0xbf1f0d2b	-0.6212947
106	0xbf4386fe	-0.76377857
107	0xbf361b8a	-0.7113577
108	0xbf3327a7	-0.6998238
109	0xbed8a2c2	-0.42311674
110	0xbedc8b31	-0.43074945
111	0xbee4c962	-0.44684893
112	0xbf134591	-0.57528025
113	0xbef0a3de	-0.4700002
114	0xbeec38cd	-0.46137086
115	0xbf4d426e	-0.8017949
116	0xbf4f3847	-0.8094525
117	0xbf5767e8	-0.84142923
118	0xbf59e6b7	-0.8511767
119	0xbf0064b3	-0.50153655
120	0xbf385965	-0.72011405
121	0xbf676e11	-0.90402323
122	0xbf3c3cd0	-0.7353029
123	0xbd81b15b	-0.06332656
124	0xbe97e993	-0.2967039
125	0xbed3379f	-0.41253373
126	0xbf0f66c7	-0.560162
127	0xbedd9cb3	-0.43283615
128	0xbf146c9d	-0.5797823
129	0xbf1766d2	-0.59141266
130	0xbf1b4b48	-0.60661745
131	0xbf4fa3bd	-0.8110922
132	0xbf3abc02	-0.7294313
133	0xbefeb8e8	-0.49750447
134	0xbf073868	-0.52820444
135	0xbf4ba18c	-0.79543376
136	0xbee364e2	-0.44412905
137	0xbf242c6c	-0.6413028
138	0xbf3c6aaf	-0.73600286
139	0xbeb43364	-0.35195458
140	0xbee38d20	-0.44443607
141	0xbf23804c	-0.6386764
142	0xbf309e6d	-0.6899174
143	0xbf58e2e3	-0.847212
144	0xbf1da825	-0.61584693
145	0xbf17fdce	-0.5937165
146	0xbf1bffd2	-0.60937226
147	0xbed1d1e2	-0.4098044
148	0xbf361c3f	-0.7113685
149	0xbf08af6a	-0.5339266
150	0xbebf3e19	-0.37352064
151	0x3eba5892	0.363957
152	0xbef7f2ce	-0.48427433
153	0xbf326045	-0.69678146
154	0xbf31c808	-0.6944585
155	0xbf3a0d5b	-0.7267663
156	0xbf4c7da4	-0.7987921
157	0xbeca9f6e	-0.3957476
158	0xbec237a1	-0.37933066
159	0xbf096fce	-0.53686225
160	0xbf44bfb3	-0.7685501
161	0xbef8b323	-0.4857417
162	0xbf13dc40	-0.5775795
163	0xbf412f98	-0.7546325
164	0xbecfd6c3	-0.40593538
165	0xbecea773	-0.4036213
166	0xbd69afca	-0.05705241
167	0xbd39a923	-0.045327317
168	0xbed18955	-0.4092509
169	0xbed35030	-0.41272116
170	0xbf29d2dc	-0.6633737
171	0xbecd19df	-0.400588
172	0xbeb8efe7	-0.3612053
173	0xbeca43c1	-0.39504817
174	0xbf31c309	-0.69438225
175	0xbf1e97fd	-0.61950666
176	0xbef35f92	-0.47533852
177	0xbf42b731	-0.7606078
178	0xbf242486	-0.6411823
179	0xbed954fc	-0.4244765
180	0xbf06bca2	-0.5263158
181	0xbf3670b9	-0.7126575
182	0xbd2eab79	-0.042643998
183	0x3c073c33	0.008254099
184	0xbe62e142	-0.22156242
185	0x3cd0c657	0.0254852
186	0xbd6558bf	-0.055992838
187	0xbe81f921	-0.25385383
188	0xbe64559e	-0.22298285
189	0xbd619627	-0.055074837
190	0xbb89ddd0	-0.0042073503
191	0xbea41d80	-0.32053757
192	0xbe5e6877	-0.21719538
193	0x3ece7a13	0.4032751
194	0x3df627e3	0.120193265
195	0x3d37cc5d	0.04487263
196	0xbe13a9ac	-0.14420193
197	0xbd905a65	-0.070484914
198	0xbddc3e55	-0.107540764
199	0xbe42c649	-0.19020952
200	0x3e11594c	0.1419422
201	0xbe61c697	-0.22048412
202	0xbe791bb4	-0.24326974
203	0xbe4223cb	-0.18958966
204	0xbd9c4c6e	-0.07631765
205	0xbd743ac2	-0.05962635
206	0xbe648197	-0.2231506
207	0xbdee5b44	-0.11638501
208	0xbe3eefc4	-0.18646151
209	0xbe44f10c	-0.19232577
210	0xbf31d023	-0.69458216
211	0xbf1b1198	-0.6057372
212	0xbf09e740	-0.53868484
213	0xbf4ebaf0	-0.80753994
214	0xbf020d43	-0.50801486
215	0xbf08a71e	-0.5338
216	0xbeb74b54	-0.35799658
217	0xbef67e25	-0.48143116
218	0xbee99eeb	-0.45629057
219	0xbee55c5c	-0.44797027
220	0xbef86fb6	-0.4852273
221	0x3f559205	0.83425933
222	0xbf2aef53	-0.6677143
223	0xbf48947c	-0.7835157
224	0xbed62a68	-0.41829228
225	0xbef4df9b	-0.47826847
226	0xbece7b47	-0.40328428
227	0xbf1d1dfa	-0.61373866
228	0xbf4dbd66	-0.80367124
229	0xbf2e4216	-0.6806959
230	0xbf2972b0	-0.66190624
231	0xbeb73ed4	-0.35790122
232	0xbf4e94bf	-0.8069572
233	0xbf571399	-0.8401428
234	0xbf5386e5	-0.8262771
235	0xbf3480a1	-0.7050877
236	0xbf0315ed	-0.5120533
237	0xbeb02187	-0.3440058
238	0xbe3bcf52	-0.18340805
239	0x3e7e799d	0.2485108
240	0xbe6d9d18	-0.23204458
241	0xbe0e2505	-0.1388131
242	0xbe8008b8	-0.25006652
243	0x3e0f61e9	0.14002194
244	0xbded19de	-0.115771994
245	0x3dba082a	0.090835884
246	0xbe66a133	-0.2252243
247	0xbd94d5bb	-0.07267328
248	0xbdccf621	-0.10007883
249	0x3dd964dc	0.106149405
250	0x3d34472c	0.044013187
251	0xbdcfdb3f	-0.1014924
252	0xbe76d600	-0.24105072
253	0xbe8db48b	-0.27676806
254	0xbeaa739d	-0.3329133
255	0xbe93807e	-0.2880897

fc1.bias f4 [150]
0	0xbf1955c6	-0.59896505
1	0xbebb34ef	-0.36563823
2	0xbe831305	-0.25600448
3	0xbd4e9600	-0.05043602
4	0xbf2c8efc	-0.67405677
5	0xbf324809	-0.69641167
6	0xbeb13129	-0.3460782
7	0xbf592bca	-0.8483244
8	0xbf6a8294	-0.91605496
9	0xbf386279	-0.7202526
10	0xbf4f6dad	-0.81026727
11	0xbf0e77a4	-0.5565131
12	0xbec3f7bb	-0.3827494
13	0xbe56843f	-0.20948885
14	0x3e73cc57	0.23808418
15	0xbf500a71	-0.8126593
16	0xbf3ae079	-0.7299877
17	0x3d6f23ee	0.058383875
18	0xbe41b551	-0.18916823
19	0xbf3f53f2	-0.74737465
20	0x3e604ca4	0.21904236
21	0xbe8cd584	-0.2750665
22	0xbe652f71	-0.22381379
23	0x3d8430a7	0.06454592
24	0xbe874800	-0.2642212
25	0xbf54ad59	-0.8307701
26	0xbe9bde86	-0.3044321
27	0xbf17fc36	-0.5936922
28	0xbf2d4cc1	-0.6769524
29	0xbeaadfb2	-0.3337379
30	0x3e556f48	0.20843232
31	0xbf17bd53	-0.5927326
32	0xbf3b4122	-0.7314626
33	0xbef964ef	-0.4870982
34	0xbedd667c	-0.43242252
35	0xbe85f739	-0.26165178
36	0xba7a03b9	-0.0009537298
37	0xbed97c3f	-0.42477605
38	0xbf171702	-0.5901948
39	0xbecd5a0d	-0.40107766
40	0xbee58590	-0.44828463
41	0xbeb4b93e	-0.3529758
42	0xbf01fa64	-0.5077269
43	0xc05c4cc0	-3.4421844
44	0xbedd2c57	-0.4319789
45	0xbebb0689	-0.36528423
46	0xbeb41e24	-0.35179245
47	0xbe3af6ec	-0.18258256
48	0xbdbf44a1	-0.09339262
49	0xbed8e09a	-0.42358857
50	0x3dde9adc	0.10869381
51	0xbeb8be30	-0.36082602
52	0x3e5383f6	0.20655808
53	0xc029d001	-2.6533206
54	0xbe9e4e80	-0.30919266
55	0xbf0c41e6	-0.54788053
56	0xbeb9381e	-0.36175627
57	0xbf1e2dd6	-0.6178869
58	0xbedb983d	-0.42889586
59	0xbe715b8c	-0.23570079
60	0xbf491a26	-0.78555524
61	0xbf413fca	-0.7548796
62	0xbf4c2b49	-0.7975355
63	0xbf3549f7	-0.70815986
64	0xbe969986	-0.29414004
65	0xbe7df502	-0.24800494
66	0xbf4647e6	-0.7745346
67	0xbf0d4ec9	-0.5519834
68	0xbe8397a8	-0.25701642
69	0xbf3aa90c	-0.72914195
70	0xbe30db2d	-0.17271109
71	0xbf24f9e6	-0.64443815
72	0xbe65ac70	-0.22429061
73	0xbece9111	-0.40345052
74	0xbf5c7449	-0.8611494
75	0xbe0daa2c	-0.13834447
76	0xbf1c6847	-0.61096615
77	0xbf1ae96f	-0.6051244
78	0xbecd19e3	-0.40058812
79	0xbf18b90a	-0.5965735
80	0xbe3c36c0	-0.1838026
81	0xbf16679b	-0.5875184
82	0xbeefd9a5	-0.46845737
83	0xbe6415c7	-0.22273932
84	0xbf39e899	-0.7262054
85	0xbf398cbf	-0.72480386
86	0xbf1782d6	-0.59184015
87	0xbf85f48f	-1.0465258
88	0xbf177f79	-0.5917888
89	0x3e63bd5e	0.22240207
90	0xbeb64de5	-0.35606304
91	0x3e3a00c8	0.1816436
92	0xbe9176e7	-0.28411028
93	0xbe7fd5a6	-0.24983844
94	0xbedb8d19	-0.42881086
95	0x3e88a787	0.26690313
96	0xbf917491	-1.1363698
97	0xbf146dab	-0.5797984
98	0xbec717cf	-0.38885352
99	0xbebbd493	-0.3668562
100	0xbea2d52d	-0.31803265
101	0xbf6b8168	-0.91994333
102	0xc028f114	-2.6397142
103	0xbeb2afd5	-0.34899774
104	0xbf4c1f76	-0.79735506
105	0xbf150e09	-0.5822454
106	0xc043a964	-3.0572138
107	0xbedffe89	-0.43748882
108	0xbd471082	-0.048599727
109	0xc0244d0a	-2.567202
110	0xbf43c04d	-0.764653
111	0xbf0420c4	-0.51612496
112	0xbe4c71c2	-0.1996527
113	0xc03c1be4	-2.9392023
114	0xbf0a100a	-0.53930724
115	0xbedab9a2	-0.42719752
116	0xbd13ff74	-0.03613229
117	0xbea64b8b	-0.3247951
118	0xbf3ba789	-0.73302513
119	0xbeccdc31	-0.40011743
120	0xbf12546a	-0.57160056
121	0xbe570014	-0.20996124
122	0xbf0a7980	-0.54091644
123	0xbfcfa701	-1.622284
124	0xbdf1043d	-0.117683865
125	0xbec1e32c	-0.3786863
126	0xbf020143	-0.50783175
127	0xbebaa7f7	-0.36456272
128	0xbeeec27c	-0.46632755
129	0xbecc5b93	-0.39913616
130	0xbd7c473e	-0.06159138
131	0xbf4d2601	-0.80136114
132	0xbf2f6082	-0.68506634
133	0xbed26206	-0.4109041
134	0xbf795ce8	-0.9740739
135	0xbfd0f95a	-1.6326096
136	0xbe64da81	-0.22348978
137	0xbe9eba60	-0.31001568
138	0xbf0a18b3	-0.5394394
139	0xbe644f06	-0.2229577
140	0xbf2f323e	-0.6843604
141	0xbf52ead4	-0.8238957
142	0xbf5cb48c	-0.8621299
143	0xbe2f384c	-0.1711132
144	0xbf349b28	-0.7054925
145	0xbf5d4f6c	-0.86449313
146	0xc0245bb8	-2.568098
147	0xbddc1855	-0.107468285
148	0xbf59887b	-0.8497388
149	0xbe9137cd	-0.28362885

fc2.weight f4 [256, 150]
0	0xbf162d83	-0.58663195
1	0x3d2c8f97	0.042129125
2	0xbca7d127	-0.020485474
3	0xbf279f16	-0.6547712
4	0xbd6ad886	-0.0573354
5	0xbd8805f8	-0.066417634
6	0x3f091482	0.5354692
7	0xbf17c1fa	-0.5928036
8	0xbf16ab5b	-0.5885522
9	0xbf0f1c4b	-0.55902547
10	0xbd91e025	-0.0712283
11	0xbcff8ecb	-0.031196019
12	0xbf1f2a90	-0.6217432
13	0xbf101c0a	-0.56292784
14	0x3d886cf7	0.066614084
15	0xbf13e7b4	-0.57775426
16	0xbf167a7e	-0.5878066
17	0x3c92a9a8	0.017903164
18	0xbf279e97	-0.65476364
19	0xbd841140	-0.06448603
20	0x3d9f6bfa	0.07784267
21	0xbf1f11a4	-0.6213629
22	0xbd2f02ea	-0.04272739
23	0xbd1fb3ef	-0.038989957
24	0x3d92eb2b	0.07173761
25	0xbf1b193b	-0.60585374
26	0x3f1cd44c	0.6126144
27	0xbd76dd59	-0.060269687
28	0xbf0ef9be	-0.55849826
29	0xbd138888	-0.03601888
30	0x3c884e20	0.016638815
31	0xbf1f9369	-0.62334305
32	0xbf1a3770	-0.6024084
33	0xbb83e8ab	-0.004025539
34	0xbf16c0f9	-0.588882
35	0xbf1f154c	-0.6214187
36	0x3c7b2416	0.015328428
37	0xbf27a4c2	-0.65485775
38	0xbf2db6bf	-0.67856973
39	0xbf179bb6	-0.5922197
40	0xbf2c6fa6	-0.6735786
41	0xbf21ae91	-0.6315699
42	0xbf073273	-0.52811354
43	0x3c1a2cc1	0.009410084
44	0xbd89c4e8	-0.0672701
45	0x3f22f79a	0.6365906
46	0x3f13b7ac	0.57702136
47	0xbf06d0df	-0.5266246
48	0x3d89ad38	0.06722492
49	0xbf11eb73	-0.5699989
50	0x3d9fe591	0.07807458
51	0xbcc00228	-0.023438528
52	0xbc717fc7	-0.014739937
53	0xbd3fd6df	-0.046835776
54	0x3d84b1f4	0.06479254
55	0x3d546e5c	0.05186306
56	0xbf25cbec	-0.64764285
57	0xbd3b15ce	-0.04567509
58	0x3d43ff20	0.047850728
59	0xbc13ef32	-0.009029197
60	0x3f0420ce	0.51612556
61	0xbd6048f8	-0.05475709
62	0xbf1305e4	-0.57430863
63	0xbf291254	-0.6604359
64	0xbf1c9ae0	-0.6117382
65	0x3f0181cb	0.50588673
66	0x3f1a1f59	0.6020408
67	0xbda28392	-0.07935251
68	0xbf1dd3b5	-0.61651164
69	0xbf1492ea	-0.58036673
70	0xbf1b3b67	-0.60637516
71	0xbf21f8e0	-0.6327038
72	0xbf118a18	-0.5685134
73	0xbf1e0a3c	-0.61734366
74	0xbf1c452a	-0.61043036
75	0xbf26560e	-0.6497506
76	0x3f2c65dd	0.6734293
77	0xbf250bc9	-0.6447111
78	0x3f17c776	0.5928873
79	0xbf0bf4e2	-0.54670537
80	0xbf27aea6	-0.6550087
81	0xbd9b295e	-0.075762495
82	0xbf0f1399	-0.5588928
83	0x3d8b6719	0.06806774
84	0xbf1f104d	-0.6213425
85	0xbf1b4925	-0.60658485
86	0xbf0df527	-0.554522
87	0xbd0b5bf4	-0.03402324
88	0xbd3a1774	-0.045432523
89	0x3d2cff05	0.042235393
90	0x3d0cfb9c	0.03441964
91	0xbd26f7a3	-0.04076351
92	0x3cfd2fb5	0.030906538
93	0xbf28c7e4	-0.6593001
94	0xbf2ab047	-0.6667523
95	0x3d676be7	0.056499388
96	0xbd4e64d3	-0.050389122
97	0xbf268cf9	-0.6505886
98	0xbf23a528	-0.63923883
99	0x3f098039	0.5371128
100	0xbc76e789	-0.015069851
101	0xbf2df972	-0.6795875
102	0x3d3af63f	0.045644995
103	0xbf231efe	-0.63719165
104	0xbf0aca30	-0.54214764
105	0xbf221db0	-0.6332655
106	0x3b029389	0.0019924364
107	0xbf22b537	-0.6355776
108	0xbf144e54	-0.5793202
109	0xbd61b001	-0.05509949
110	0xbf058a0c	-0.5216377
111	0xbf17e2bb	-0.5933034
112	0x3da11dbd	0.07867
113	0x3d0d4d4a	0.034497537
114	0x3f121c3f	0.5707435
115	0xbf0c5ce7	-0.5482926
116	0xbc942bbd	-0.018087262
117	0xbf05e217	-0.5229811
118	0xbf1caf75	-0.61205226
119	0x3f112d11	0.5670939
120	0xbd4bae6c	-0.04972689
121	0xbf189267	-0.5959839
122	0x3d9f0a07	0.077655844
123	0x3d30d522	0.04317201
124	0xbf1eb697	-0.6199736
125	0xbf1c4eca	-0.6105772
126	0xbf2bd0bd	-0.67115384
127	0xbf293bd3	-0.6610691
128	0xbf0c20f8	-0.54737806
129	0x3f1c1c19	0.60980374
130	0x3aef0d13	0.0018238149
131	0x3f1a8edd	0.6037424
132	0x3d08dd79	0.033414338
133	0x3d8bd20a	0.06827171
134	0x3c989952	0.018627796
135	0xbd7f2a30	-0.062296093
136	0xbc890078	-0.016723856
137	0x3f22c5e3	0.635832
138	0xbf076ae7	-0.52897495
139	0xbf0b45dd	-0.5440348
140	0xbca2085b	-0.019779375
141	0xba794812	-0.00095093355
142	0x3da06e3b	0.07833525
143	0xbf0a23cc	-0.5396087
144	0xbf147730	-0.57994366
145	0xbd898cfe	-0.06716345
146	0xbd1cd20c	-0.038286254
147	0x3d35b88c	0.04436545
148	0xbf18bc1d	-0.5966204
149	0xbf19aa22	-0.6002523
150	0xbf2e6532	-0.6812316
151	0xbf1963b9	-0.5991779
152	0xbcf822b9	-0.030289995
153	0xbf4162e5	-0.75541526
154	0x3d0ea95f	0.034829494
155	0xbea5a5c7	-0.3235304
156	0xbf07f6c8	-0.53110933
157	0xbf07eaad	-0.5309246
158	0xbf0ac829	-0.5421167
159	0xbf07e284	-0.5308001
160	0x3f2244c0	0.63386154
161	0xbd996df8	-0.07491678
162	0xbf0dc510	-0.5537882
163	0xbf50b7da	-0.81530535
164	0xbd321446	-0.043476366
165	0xbf0d8cb2	-0.5529281
166	0xbf0a1571	-0.53938967
167	0xbd7eed4f	-0.062238034
168	0xbf4f975e	-0.81090343
169	0xbf2a5db6	-0.6654924
170	0xbd169d83	-0.03677131
171	0xbf4653e8	-0.7747178
172	0x3cb98c72	0.022649977
173	0x3d92d169	0.07168848
174	0x3d1fc546	0.039006494
175	0xbf26acad	-0.6510723
176	0xbf5ba42d	-0.8579739
177	0x3d14a992	0.036294527
178	0xbf1422b7	-0.5786547
179	0x3cc31b77	0.023816807
180	0x3d7a7695	0.061148245
181	0xbf1b637a	-0.60698664
182	0xbf174699	-0.590921
183	0xbd676d55	-0.05650075
184	0xbf0dd19f	-0.5539798
185	0xbf44c224	-0.76858735
186	0xbca1c1e9	-0.019745784
187	0xbf2be189	-0.67141014
188	0x3f0a0693	0.5391628
189	0xbf0bb7d5	-0.5457738
190	0xbf2626b7	-0.64902824
191	0xbf3021e5	-0.6880172
192	0xbf0f5a92	-0.55997574
193	0xbcb2e941	-0.02183974
194	0x3f26539b	0.6497132
195	0x3f293d17	0.6610884
196	0x3f0ad54a	0.54231703
197	0xbf439ece	-0.7641419
198	0x3d7e4507	0.06207755
199	0xbf0aefb9	-0.5427204
200	0x3d0f9b1b	0.03506003
201	0xbef79ee1	-0.48363402
202	0x3da2465f	0.079235785
203	0x3d8fca05	0.07020954
204	0xbf3b869a	-0.7325226
205	0xbf3f3df8	-0.7470393
206	0xbf50de6b	-0.8158938
207	0x3d83b7ec	0.06431565
208	0x3d6e6a51	0.05820686
209	0xbe89da3f	-0.2692432
210	0x3f1146cf	0.5674867
211	0xbd18315a	-0.03715644
212	0xbf08c6af	-0.5342817
213	0xbf0f160f	-0.55893034
214	0xbf50458d	-0.81356126
215	0xbf0b9eb8	-0.5453906
216	0xbf163f17	-0.5869002
217	0xbb6bbdb7	-0.0035971233
218	0xbf3b8c9f	-0.73261446
219	0xbf23e0b6	-0.64014757
220	0xbf5f0ca8	-0.87128687
221	0xbf0bd28f	-0.5461816
222	0xbf489db5	-0.7836564
223	0xbf53f951	-0.828023
224	0xbf1395d7	-0.5765051
225	0xbf5eb9b9	-0.8700214
226	0xbf60e66d	-0.878516
227	0xbecd116e	-0.4005236
228	0x3f101d97	0.5629515
229	0xbf30e6ab	-0.6910197
230	0xbf5148f2	-0.8175193
231	0x3d5a68f7	0.05332276
232	0xbf05bdd6	-0.5224279
233	0xbead6ab7	-0.3387048
234	0xbf0ad84c	-0.5423629
235	0xbf6824f1	-0.9068137
236	0xbf0c9afd	-0.54923993
237	0xbc418af9	-0.011812919
238	0x3ee1cfa6	0.44103736
239	0x3d93c3ad	0.072150566
240	0xbf175e51	-0.5912829
241	0xbd9c9c64	-0.07647017
242	0xbf51527d	-0.8176649
243	0xbf5baa27	-0.85806507
244	0x3f255923	0.64589137
245	0x3d9a71c2	0.07541229
246	0xba67e3e0	-0.00088459067
247	0xbf4a77e1	-0.7908917
248	0xbf620132	-0.88283074
249	0xbf118e7f	-0.56858057
250	0xbea4f2d0	-0.322165
251	0xbf1f0b55	-0.62126666
252	0xbd04cc68	-0.0324215
253	0xbf26b203	-0.65115374
254	0xbf1abf56	-0.60448205
255	0xbf06f7bc	-0.5272176

fc2.bias f4 [256]
0	0xbf1da2b8	-0.61576414
1	0xbf313929	-0.69227844
2	0xbf11fe21	-0.57028395
3	0xbf8546a6	-1.0412185
4	0xbfd3ea4a	-1.6555874
5	0xbf0f027b	-0.5586316
6	0xbf675c3d	-0.9037512
7	0xbf7c72ad	-0.9861248
8	0xbf8ec02f	-1.11524
9	0xbf1775ae	-0.5916394
10	0xbff8b090	-1.9428883
11	0xbedd45b3	-0.4321724
12	0xbf9cd46d	-1.2252327
13	0xbf16871e	-0.5879992
14	0xbef68883	-0.48151025
15	0xbf34bb92	-0.7059871
16	0xc053edce	-3.3113894
17	0xbf2826a5	-0.65683967
18	0xbf12c09f	-0.57325166
19	0xbf2d21e3	-0.6762983
20	0xbf4979d0	-0.78701496
21	0xbefe0ec2	-0.49620634
22	0xbf5b62fc	-0.85697913
23	0xc06f7256	-3.7413535
24	0xbdb5f40a	-0.088844374
25	0xbf0f1691	-0.5589381
26	0xbfb68e6d	-1.4262215
27	0xbf9470d6	-1.1596935
28	0xbf6ffc2d	-0.93744165
29	0xbf419f1d	-0.7563341
30	0xbf201af6	-0.6254114
31	0xbf1507a6	-0.58214796
32	0xc04fd59b	-3.2474124
33	0xbf26965f	-0.650732
34	0xbf1dc5f1	-0.6163016
35	0xbf15d984	-0.5853503
36	0xbec76a76	-0.3894841
37	0xbed2c28c	-0.41164052
38	0xbf651ca4	-0.8949683
39	0xbfef7cdb	-1.8709978
40	0xbf370127	-0.71486133
41	0xbf1183f4	-0.5684197
42	0xbf1e6f55	-0.6188863
43	0xbf81bea8	-1.0136309
44	0xbe6e8504	-0.23292929
45	0xbf0596a0	-0.5218296
46	0xbeb7b459	-0.35879782
47	0xbf3e866c	-0.7442386
48	0xbf348862	-0.70520604
49	0xbfa2dab6	-1.2722995
50	0xbfb943cd	-1.4473816
51	0xbf00a42b	-0.502505
52	0xc029c9df	-2.6529462
53	0xbecf2bd6	-0.40463132
54	0xbeffd33c	-0.49965847
55	0xbfce7f5a	-1.6132615
56	0xbefdcf45	-0.49572197
57	0xc06b1b7f	-3.6735532
58	0xbf897a34	-1.0740418
59	0xbf195d46	-0.5990795
60	0xbf2c1e40	-0.6723366
61	0xbf1b3da7	-0.6064095
62	0xbef7b8c7	-0.4838316
63	0xbf235d96	-0.63814676
64	0xbf14e601	-0.5816346
65	0xbda4439c	-0.08020708
66	0xbe69ab0e	-0.22819158
67	0xc014cc9a	-2.324988
68	0xbf0dde64	-0.55417466
69	0xbf02c8ff	-0.51087946
70	0xbf1db2d0	-0.6160097
71	0xbf144310	-0.5791483
72	0xbf825970	-1.0183544
73	0xbf72cb3f	-0.9484138
74	0xbeff0320	-0.49807072
75	0xbf039ece	-0.5141419
76	0xbfa2073d	-1.2658459
77	0xbfb04436	-1.3770816
78	0xbf1c043e	-0.60943973
79	0xbf4f99dd	-0.8109415
80	0xbeef23eb	-0.4670709
81	0xbf16cfc2	-0.58910763
82	0xbf5332ad	-0.824992
83	0xbf215753	-0.6302387
84	0xbd93388b	-0.07188519
85	0xbf4d8b02	-0.80290234
86	0xbd29f5b8	-0.0414941
87	0xbf1a3824	-0.60241914
88	0xbf17bf86	-0.59276617
89	0xbf1f48ca	-0.6222044
90	0xbf0e52be	-0.55595005
91	0xbf397efb	-0.7245938
92	0xbf464fb6	-0.7746538
93	0xbf08f6d5	-0.53501636
94	0xbf53ac75	-0.82685024
95	0xbf54fb97	-0.83196396
96	0xbf1aa95b	-0.60414666
97	0xc0285cfd	-2.6306756
98	0xbefd62d0	-0.4948945
99	0xc02f6f2a	-2.74116
100	0xbfff672c	-1.995336
101	0xbf0069fe	-0.5016173
102	0xc0588986	-3.3833938
103	0xbf72aecb	-0.9479796
104	0xbf9fb16b	-1.2476019
105	0xc05eaada	-3.479178
106	0xc0036bdb	-2.053458
107	0xbf9d2d58	-1.2279463
108	0xbf47d6e9	-0.780623
109	0xbfdd94de	-1.7311056
110	0xbf393fe1	-0.72363096
111	0xbebd2d19	-0.3694847
112	0xbed7ee07	-0.42173788
113	0xc00ec9fa	-2.2310777
114	0xbf452880	-0.77014923
115	0xbf36225a	-0.71146166
116	0xbf2fadd9	-0.68624645
117	0xbf8fc2b6	-1.1231296
118	0xbeffd535	-0.49967352
119	0xbf46113a	-0.77370036
120	0xbf21c845	-0.6319621
121	0xbf100834	-0.56262517
122	0xc05d7677	-3.4603555
123	0xbf5ffde1	-0.87496763
124	0xbf42548f	-0.75910276
125	0xbf1c3ef4	-0.6103356
126	0xbf820ace	-1.0159547
127	0xbf4d3a2a	-0.80166876
128	0xbecf59dc	-0.40498245
129	0xbeb5631b	-0.35427174
130	0xbf1900ed	-0.5976704
131	0xbf0857ff	-0.5325927
132	0xbfcecc83	-1.6156162
133	0xbf09894e	-0.53725135
134	0xbee1ca91	-0.44099858
135	0xbf1a1f9f	-0.602045
136	0xbf714454	-0.94244885
137	0xbf140e01	-0.5783387
138	0xbef567d3	-0.47930774
139	0xbf6c5e1a	-0.9233109
140	0xbf1795b5	-0.5921281
141	0xc0080310	-2.125187
142	0xc024a1c1	-2.5723727
143	0xbeb058fe	-0.34442896
144	0xbeff880d	-0.49908486
145	0xbf9fa6de	-1.2472799
146	0xbefda659	-0.49540976
147	0xbf045e16	-0.51706064
148	0xbeed051c	-0.4629296
149	0xbf3c64e7	-0.73591465
150	0xc05c7201	-3.4444582
151	0xc07c1bdf	-3.939201
152	0xc05fa5e4	-3.4945002
153	0xc030e185	-2.7637646
154	0xbed1de59	-0.4098995
155	0xc05b4858	-3.4262905
156	0xbf00d305	-0.5032199
157	0xbf7dc6e1	-0.9913159
158	0xbeddfc92	-0.43356758
159	0xbf07b08b	-0.5300376
160	0xbf4e2b1a	-0.8053452
161	0xbec86b41	-0.39144328
162	0xbf00e858	-0.5035453
163	0xc03a5184	-2.9112253
164	0xbf34f7c1	-0.7069054
165	0xbf2c9397	-0.67412704
166	0xbfa534c0	-1.2906723
167	0xbf45654f	-0.7710771
168	0xbeebbd3d	-0.46042815
169	0xbef27be0	-0.47360134
170	0xbf270b2d	-0.6525143
171	0xbf58913c	-0.8459661
172	0xbed27a8e	-0.41109127
173	0xbeead42d	-0.45865002
174	0xbf36d5a4	-0.7141974
175	0xbef8c592	-0.48588234
176	0xbefb7562	-0.49112993
177	0xbee53b8a	-0.44771987
178	0xbee88b8e	-0.45418972
179	0xbf1bfdb6	-0.6093401
180	0xc0537e14	-3.3045702
181	0xbefc0af2	-0.492271
182	0xbf07c79b	-0.5303895
183	0xbf296c09	-0.66180474
184	0xbf53e379	-0.8276897
185	0xbef50b3b	-0.4786013
186	0xbf0c0ce0	-0.54707146
187	0xbef9bd69	-0.4877732
188	0xbf71142d	-0.9417141
189	0xbf3292f9	-0.6975551
190	0xbf210472	-0.6289741
191	0xbec70241	-0.38868907
192	0xbf32f33c	-0.69902396
193	0xc0151d07	-2.3298967
194	0xc03c9817	-2.9467828
195	0xbed1d57c	-0.40983188
196	0xbed76044	-0.42065632
197	0xbf51e1c6	-0.8198513
198	0xbeea5774	-0.45769846
199	0xbf46e161	-0.7768765
200	0xc014faac	-2.3277998
201	0xbf1117ee	-0.5667714
202	0xbf21cabe	-0.63199985
203	0xbedcfff4	-0.43164027
204	0xbeff6e12	-0.49888664
205	0xbed8be5c	-0.42332733
206	0xbf1558fc	-0.58338904
207	0xbf27a2dd	-0.65482885
208	0xbf5ec09b	-0.8701264
209	0xbfdfdcf5	-1.7489306
210	0xc01de187	-2.46689
211	0xbedc57aa	-0.43035632
212	0xbf118e31	-0.5685759
213	0xbf33d50c	-0.7024696
214	0xbf90355c	-1.1266284
215	0xbefa2b72	-0.4886127
216	0xbebd4c33	-0.36972198
217	0xbf3247cf	-0.6964082
218	0xbf03cccc	-0.5148437
219	0xbf086071	-0.5327216
220	0xbee2ddb7	-0.4430978
221	0xbfb519bc	-1.4148479
222	0xbf0cfbfd	-0.55072004
223	0xbf133d32	-0.5751525
224	0xbfbd6ed0	-1.4799442
225	0xbecd1efe	-0.40062708
226	0xbf227a8d	-0.6346825
227	0xbed7343a	-0.42032033
228	0xbf448165	-0.7675994
229	0xbf749fe0	-0.9555645
230	0xbd863569	-0.06553156
231	0xbee4887d	-0.44635382
232	0xbf89c59e	-1.0763433
233	0xbf156e42	-0.58371365
234	0xbec0f28e	-0.37685055
235	0xbfafcb62	-1.3733943
236	0xbf18c9f3	-0.5968315
237	0xc02a707e	-2.663116
238	0xbf62ffbf	-0.8867149
239	0xbee3d1a4	-0.4449588
240	0xbef3886d	-0.47565022
241	0xbe5eaa04	-0.21744543
242	0xc0286413	-2.631108
243	0xbf1791ac	-0.5920665
244	0xbf4d8bfc	-0.80291724
245	0xbf484cc7	-0.7824215
246	0xbf060756	-0.52354944
247	0xbf0251ea	-0.5090624
248	0xbf68b931	-0.9090758
249	0xbf005ee9	-0.5014482
250	0xbf37a0ea	-0.7172991
251	0xbf04de4c	-0.519017
252	0xbeef7039	-0.46765307
253	0xbf29097d	-0.660301
254	0xbf518461	-0.8184262
255	0xbdfcce4a	-0.12344034

fc3.weight f4 [5, 256]
0	0x3f1d39ec	0.61416507
1	0x3e65a79c	0.22427219
2	0xbeca842a	-0.39553958
3	0x3e66e1f8	0.22547138
4	0x3c493796	0.012281319
5	0x3f05825b	0.5215203
6	0x3f1ca7c6	0.611935
7	0x3e444469	0.19166721
8	0x3f6cab92	0.92449296
9	0x3ed31e0b	0.41233858
10	0xbefae689	-0.4900401
11	0xbed4b5a6	-0.41544837
12	0x3f123468	0.57111216
13	0xbf0ab6bd	-0.54185086
14	0x3ef8f05a	0.48620874
15	0xbefc364c	-0.49260175
16	0x3f1d5f20	0.61473274
17	0x3f43c2cf	0.7646913
18	0xbedefec0	-0.43553734
19	0xbf1536cb	-0.5828673
20	0xbecd9e3b	-0.40159783
21	0xbecaaf5c	-0.39586914
22	0xbedfbada	-0.43697244
23	0x404bd817	3.185064
24	0xbf03085b	-0.51184624
25	0xbed16367	-0.4089615
26	0x3e6be74f	0.23037456
27	0xbf89ee61	-1.0775872
28	0xbf3125d9	-0.69198376
29	0x3ef32cf6	0.4749524
30	0xbee17d8e	-0.44041103
31	0xbedb7969	-0.42866066
32	0x4034e7a1	2.8266375
33	0xbeed4de1	-0.4634848
34	0xc03bd655	-2.9349568
35	0xbecb0bf9	-0.39657572
36	0x3c6bd9d0	0.014395192
37	0xbed111d7	-0.40833923
38	0x3d74971b	0.059714418
39	0x3e98aa3b	0.29817376
40	0xbecebed2	-0.4037996
41	0xbecfb9d0	-0.4057145
42	0x3d3c4126	0.045960568
43	0x3ecf97cd	0.40545502
44	0x3ee261bd	0.44215193
45	0xbd265c68	-0.04061547
46	0x3ed4d81c	0.41571128
47	0x3ef780b1	0.4834037
48	0xbef91f91	-0.48656896
49	0x3dba98a0	0.09111142
50	0x3feeb2ed	1.8648354
51	0x3c81cbac	0.015844189
52	0xbeec7dba	-0.46189672
53	0xbed809b9	-0.42194918
54	0xbefed6da	-0.49773294
55	0x3e140c96	0.14457926
56	0x3f4d57c0	0.8021202
57	0x3f4b2f00	0.7936859
58	0x3d18811b	0.0372325
59	0xbd0a0796	-0.03369864
60	0x3f15f3e3	0.58575267
61	0x3e952bfd	0.29135123
62	0xbecac89e	-0.39606184
63	0x3f16f922	0.58973897
64	0x3f13c5c3	0.57723635
65	0x3ea29616	0.3175513
66	0x3f8d143f	1.1021804
67	0x3f23380b	0.6375739
68	0x3f190475	0.59772426
69	0x3e62d67a	0.22152129
70	0x3f27bbe4	0.65521073
71	0x3f4405dd	0.76571447
72	0x3eae014e	0.3398537
73	0x3f14005b	0.5781304
74	0xbf10caae	-0.56559265
75	0xbf058b9e	-0.52166164
76	0x3f1f600e	0.6225594
77	0x3e806490	0.25076723
78	0xbedbcf51	-0.42931607
79	0x3f258cc5	0.6466792
80	0xbee8b5e2	-0.45451266
81	0xbed1bda6	-0.40965003
82	0x3da9ec5f	0.08297037
83	0x3e54c04f	0.20776485
84	0xbf05fb50	-0.523366
85	0x3e9e11ce	0.3087296
86	0xbeb5b86f	-0.35492274
87	0xbf034502	-0.5127717
88	0xbeceab42	-0.40365034
89	0x3ee4c560	0.44681835
90	0x3f0d07c2	0.5508996
91	0x3f1db04e	0.61597145
92	0x3e7874a2	0.24263242
93	0xbee7d761	-0.4528151
94	0xbed6211d	-0.41822138
95	0x3e8ef219	0.2791908
96	0xbf007ade	-0.5018748
97	0xc0596062	-3.3965077
98	0x3ee7bb55	0.4526011
99	0x3f17d7ba	0.5931355
100	0x3fa6d7c1	1.3034593
101	0xbecac46e	-0.3960299
102	0x40542df0	3.3153038
103	0xbefe07a0	-0.49615192
104	0x3eda081b	0.4258431
105	0x405ad4dc	3.419242
106	0xbf06cc0a	-0.5265509
107	0xbfef39b3	-1.8689483
108	0xbe34ea3c	-0.17667478
109	0x3e519452	0.20466736
110	0x3e9d2691	0.30693486
111	0x3f05430f	0.5205545
112	0xbec98a80	-0.3936348
113	0x3f4b93dd	0.79522496
114	0x3f35256f	0.70760244
115	0x3f29b850	0.66296864
116	0x3f499ab7	0.787517
117	0xbed6c986	-0.41950625
118	0xbedea04f	-0.4348168
119	0xbecf3012	-0.40466362
120	0xbc922c94	-0.017843522
121	0xbeda0a7d	-0.42586127
122	0x40450c4d	3.0788758
123	0x3ec343d1	0.38137677
124	0x3b7a9fa8	0.0038242135
125	0x3f403075	0.7507394
126	0x3f113dfa	0.56735194
127	0x3f0098e0	0.5023327
128	0x3f1d9db6	0.6156877
129	0x3db92667	0.09040528
130	0x3f217d3c	0.6308172
131	0xbee4f2b1	-0.4471641
132	0xbd515859	-0.051109646
133	0xbee34990	-0.4439206
134	0xbed3a28d	-0.41334954
135	0xbedfd391	-0.437161
136	0xbde5f8ab	-0.1122907
137	0xbeee0304	-0.46486676
138	0xbecfaa7a	-0.4055975
139	0x3f1114a5	0.56672126
140	0x3f28bc50	0.6591234
141	0x3ed91358	0.4239757
142	0x3f4fdaed	0.8119343
143	0x3f341823	0.7034933
144	0xbecf6e81	-0.40513995
145	0xbf1463dd	-0.5796488
146	0xbecf1fe3	-0.40454015
147	0xbecdf96c	-0.40229356
148	0xbed73b1e	-0.4203729
149	0x3eee101b	0.46496662
150	0xbf03b312	-0.51445115
151	0x3f64b582	0.8933946
152	0x406057d3	3.5053604
153	0x401ad06b	2.4189708
154	0x3e3845b8	0.17995346
155	0x40124e4e	2.2860293
156	0xbef1b69e	-0.47209638
157	0x3f099019	0.537355
158	0xbd9a8ab6	-0.07545988
159	0x3f4d967c	0.80307746
160	0x3f267872	0.65027535
161	0x3e874fee	0.2642817
162	0xbee13580	-0.4398613
163	0x4050c9ef	3.262325
164	0xbed7c51c	-0.4214257
165	0xbed96365	-0.42458645
166	0xbb1f1e88	-0.0024279673
167	0xbed4f5e8	-0.41593862
168	0xbecbd491	-0.39810613
169	0x3efd7f30	0.495111
170	0xbf12ec31	-0.5739165
171	0xbf018578	-0.5059428
172	0xbee47be2	-0.44625765
173	0xbedf5f14	-0.43627226
174	0x3f2b9f05	0.6703952
175	0xbed3e1a1	-0.4138308
176	0xbec5977a	-0.3859213
177	0x3ecb8af5	0.39754453
178	0x3e96b3e6	0.29434127
179	0xbf13eba7	-0.5778145
180	0xbe3f5879	-0.18686093
181	0xbeca887c	-0.39557254
182	0x3eb7d660	0.35905743
183	0xbe8759d8	-0.26435733
184	0x3f2c3aa4	0.6727698
185	0xbedf978d	-0.43670312
186	0xbec7c8fc	-0.39020526
187	0x3f5c9e88	0.861794
188	0xbef2f96c	-0.4745592
189	0xbede2112	-0.43384606
190	0x3f12af9b	0.572992
191	0xbed0529a	-0.4068802
192	0xbed118d6	-0.4083926
193	0x3f36311c	0.71168685
194	0x4009df90	2.1542702
195	0xbedd3e17	-0.43211433
196	0xbedf2618	-0.4358375
197	0xbee74fbd	-0.45178023
198	0xbec616b3	-0.38689193
199	0x3d02e93a	0.031960703
200	0x3fd4cea2	1.6625559
201	0x3f502696	0.8130888
202	0x3ec9c58f	0.39408538
203	0xbec7fd2c	-0.39060342
204	0x3f3b1cd3	0.7309086
205	0xbed820f0	-0.4221263
206	0x3ee198a0	0.44061756
207	0x3f1c5547	0.6106762
208	0x3f4a73d0	0.79082966
209	0x3f385b27	0.7201409
210	0x40906597	4.512401
211	0x3f5faf56	0.87376916
212	0xbecf2640	-0.4045887
213	0xbf13dda3	-0.57760066
214	0xbf8a5c06	-1.0809333
215	0xbecc4a4a	-0.39900428
216	0x3f0124db	0.5044686
217	0xbee41039	-0.44543627
218	0xbee6bf76	-0.45067948
219	0x3f40cecd	0.7531555
220	0xbed02732	-0.40654904
221	0x3f407785	0.7518237
222	0x3f4f312a	0.80934393
223	0x3ea2dda4	0.31809723
224	0x3f84a933	1.0364136
225	0xbedbd3bd	-0.4293498
226	0x3f1701f3	0.5898735
227	0xbee2c48f	-0.44290587
228	0x3d62369e	0.05522787
229	0x3e84cafd	0.25936118
230	0xbf114be7	-0.5675644
231	0xbf03ec32	-0.5153228
232	0x3e2ee5d4	0.1707986
233	0xbf032b3e	-0.5123786
234	0xbedeb5f3	-0.4349819
235	0xbd8ad691	-0.067792065
236	0x3f330353	0.6992695
237	0xbdd0f1cd	-0.1020237
238	0x3dd6e9e0	0.10493827
239	0xbed29d52	-0.4113565
240	0x3f242d99	0.64132077
241	0xbeed4da1	-0.4634829
242	0x3efb6c66	0.4910614
243	0xbedf0b27	-0.43563196
244	0x3e96fcca	0.29489738
245	0x3f256fd1	0.64623743
246	0xbedb5049	-0.4283469
247	0xbe9c7bb8	-0.3056314
248	0xbed5de2d	-0.4177107
249	0x3f42d3b3	0.7610428
250	0xbed7454d	-0.4204506
251	0xbf05f4af	-0.5232648
252	0xbed29a81	-0.41133502
253	0x3f5522f0	0.83256435
254	0x3dc0b8f9	0.09410281
255	0xbf010617	-0.5039992

fc3.bias f4 [5]
0	0x40d37c43	6.6089187
1	0x40cb4095	6.3516335
2	0x40c2b173	6.0841613
3	0x40cb2809	6.348637
4	0x40ca0e63	6.314256
