tmp/dqn/model.pt (torch, 170695 bytes, 6 tensors)

fc1.weight f4 [150, 14]
0	0xbf7177fb	-0.943237
1	0xbf8bebab	-1.0931295
2	0xbf6d1755	-0.92613727
3	0xbf368d6d	-0.7130955
4	0xbf8145bd	-1.0099407
5	0xbf402d8f	-0.75069517
6	0xbf74306a	-0.95386374
7	0xbf6f90ef	-0.93580526
8	0xbf899426	-1.0748336
9	0xbf7b691a	-0.9820725
10	0xbf88be38	-1.068305
11	0xbf6d6407	-0.92730755
12	0xbf49f14d	-0.7888382
13	0xbf68bf23	-0.9091665
14	0xc036cf41	-2.8563998
15	0xc0206a18	-2.5064754
16	0xc0231eb0	-2.548748
17	0xc027a557	-2.6194665
18	0xc039a434	-2.9006472
19	0xc03c12b4	-2.9386415
20	0xc03e4916	-2.9732108
21	0xc0324263	-2.785302
22	0xc03bd512	-2.9348798
23	0xc0200470	-2.5002708
24	0xc0230e64	-2.5477533
25	0x40217234	2.5225954
26	0xbe13de81	-0.14440347
27	0x3d4238fb	0.047417622
28	0xbf2d140e	-0.67608726
29	0xbe976292	-0.2956739
30	0xbeae9985	-0.341015
31	0xbf1c88da	-0.6114632
32	0xbf24ec3c	-0.64422965
33	0xbf30adcc	-0.69015193
34	0xbe8553f8	-0.26040626
35	0xbe6bfb5b	-0.23045103
36	0xbe89a0d3	-0.26880512
37	0xbec8da14	-0.3922888
38	0xbf3aedfd	-0.7301939
39	0xbeee88f7	-0.4658887
40	0xbee187b0	-0.44048834
41	0xbf0297b4	-0.5101273
42	0xbf560ce1	-0.836134
43	0xbf5c3c0f	-0.8602914
44	0xbf15095c	-0.58217406
45	0xbf1e339e	-0.6179751
46	0xbeaee967	-0.34162447
47	0xbf3793da	-0.7170998
48	0xbf05fb0f	-0.5233621
49	0xbf15fda1	-0.5859013
50	0xbf1afcf1	-0.6054221
51	0xbf128b3b	-0.572437
52	0xbf1e079d	-0.61730367
53	0xbf17a559	-0.59236676
54	0xbf3639a1	-0.71181685
55	0xbeb117d5	-0.34588495
56	0xbf1f1ee5	-0.62156516
57	0xbf022e7f	-0.508522
58	0xbeae3314	-0.34023345
59	0xbf0e45b6	-0.5557512
60	0xbe98e1f3	-0.29859886
61	0xbf0c55b9	-0.548183
62	0xbf27268b	-0.65293187
63	0xbed06d69	-0.40708473
64	0xbebebe65	-0.37254634
65	0xbeee95db	-0.46598706
66	0xbf0a4591	-0.540124
67	0xbe86a829	-0.2630017
68	0xbe98f918	-0.29877543
69	0xbed4612b	-0.41480383
70	0xbf281076	-0.6565012
71	0xbeb7dd1c	-0.3591088
72	0xbebdd579	-0.3707693
73	0xbf522143	-0.82082003
74	0xbeac1d34	-0.3361603
75	0xbefaa77b	-0.48955902
76	0xbf561bb8	-0.83636045
77	0xbf168f0b	-0.58812016
78	0xbf028e58	-0.5099845
79	0xbed2b863	-0.411563
80	0xbf149d85	-0.58052856
81	0xbeb72d62	-0.35776812
82	0xbee97de4	-0.4560386
83	0xbecba2f6	-0.39772767
84	0xbf0d51a0	-0.55202675
85	0xbf238cc4	-0.63886666
86	0xbe725d7d	-0.23668475
87	0xbefc0f25	-0.49230304
88	0xbeddb1cf	-0.4329972
89	0xbf0c1cfd	-0.5473173
90	0xbf2bb83f	-0.6707801
91	0xbf22f322	-0.6365224
92	0xbf1a8dc3	-0.6037256
93	0xbf0bec7f	-0.5465774
94	0xbee685ba	-0.450239
95	0xbe6ee516	-0.23329577
96	0xbead994d	-0.33906022
97	0xbecc0213	-0.39845333
98	0xbe9024e3	-0.28153142
99	0xbeecad96	-0.46226186
100	0xbeecbc90	-0.46237612
101	0xbec95d6d	-0.3932909
102	0xbe9224a4	-0.2854358
103	0xbf247254	-0.6423695
104	0xbf0db225	-0.5534995
105	0xbf0a0d7b	-0.5392682
106	0xbeb7a53f	-0.3586826
107	0xbf0ddea9	-0.5541788
108	0xbf13a8c9	-0.5767942
109	0xbf2aa4d0	-0.66657734
110	0xbef0f480	-0.4706154
111	0xbf3d8dec	-0.7404468
112	0xbe96b540	-0.29435158
113	0xbed95835	-0.4245011
114	0xbe44d194	-0.19220573
115	0xbecc4f9e	-0.39904493
116	0xbe235270	-0.15949416
117	0xbedcfe8f	-0.43162963
118	0xbd9d7efe	-0.076902375
119	0xbed2191e	-0.41034788
120	0xbe573281	-0.2101536
121	0x3a29e966	0.00064816175
122	0xbeafc173	-0.34327278
123	0xbed031fa	-0.4066313
124	0xbeac53dd	-0.33657733
125	0xbccd66cb	-0.02507343
126	0xbee4f14f	-0.44715354
127	0xbe95ccbd	-0.29257765
128	0xbf1c6cb5	-0.61103374
129	0xbe674ea5	-0.22588594
130	0xbeffb83e	-0.49945253
131	0xbf32a970	-0.6978979
132	0xbf08c726	-0.53428876
133	0xbf1c94f0	-0.6116476
134	0xbef99601	-0.48747256
135	0xbe7b996f	-0.24570249
136	0xbea04dae	-0.31309265
137	0xbedf52ff	-0.43618008
138	0xbe9279f5	-0.2860867
139	0xbf3452be	-0.70438755
140	0xbf4339aa	-0.76259863
141	0xbede5e7b	-0.43431458
142	0xbf333307	-0.69999737
143	0xbf3a2dd1	-0.7272616
144	0xbf440341	-0.76567465
145	0xbf2ce9bc	-0.6754415
146	0xbecddc6b	-0.40207228
147	0xbf5bf4d7	-0.8592047
148	0xbefc7a51	-0.4931207
149	0xbf01b6ba	-0.50669444
150	0xbeb3f21f	-0.3514566
151	0xbee098ab	-0.43866476
152	0xbf10eb19	-0.5660873
153	0xbef814ed	-0.48453465
154	0xbf595cac	-0.8490703
155	0xbf1831ae	-0.59450805
156	0xbeeb1e01	-0.4592133
157	0xbed4ce0c	-0.4156345
158	0xbf224253	-0.6338245
159	0xbee3caa7	-0.4449055
160	0xbf5b055e	-0.85555065
161	0xbed56a47	-0.41682646
162	0xbead18b3	-0.33807907
163	0xbf003966	-0.50087583
164	0xbeccb987	-0.39985296
165	0xbf168931	-0.5880309
166	0x3eb86fae	0.36022705
167	0x3f1e9461	0.6194516
168	0xbec99588	-0.39371896
169	0xbf0337a5	-0.5125678
170	0xbe93e71f	-0.2888727
171	0xbeee0e5c	-0.4649533
172	0xbef96e49	-0.48716953
173	0xbf36f4b7	-0.71467155
174	0xbe5dfaf1	-0.21677758
175	0xbee01eb9	-0.4377344
176	0xbf2d6031	-0.677249
177	0xbeb23a44	-0.34810078
178	0xbe7b86f7	-0.24563204
179	0xbf3c16e0	-0.73472404
180	0xbf563f0a	-0.8368994
181	0xbf08d626	-0.53451765
182	0xbe94a25c	-0.2903012
183	0xbf335c73	-0.7006294
184	0xbf05185b	-0.5199029
185	0xbf045744	-0.51695657
186	0xbe9bda30	-0.304399
187	0xbe8faba4	-0.2806064
188	0xbe6a731a	-0.2289547
189	0xbebaa941	-0.36457255
190	0xbebf8b7b	-0.37411103
191	0xbec05e53	-0.37571964
192	0xbf106c54	-0.56415296
193	0xbf6367d5	-0.8883031
194	0xbf1f773d	-0.6229132
195	0xbeed76d0	-0.4637971
196	0xbef18b56	-0.47176617
197	0xbf0e81ff	-0.5566711
198	0xbf3887ea	-0.7208239
199	0xbf1ca264	-0.6118529
200	0xbf1cb5c7	-0.6121487
201	0xbf0502aa	-0.5195719
202	0xbf07ba2f	-0.5301847
203	0xbf44affb	-0.76831025
204	0xbf4b171e	-0.7933215
205	0xbee97c70	-0.4560275
206	0xbee9b586	-0.45646304
207	0xbf01d9b0	-0.5072279
208	0x3f2462b8	0.6421313
209	0x3f2052f6	0.6262659
210	0xbf758569	-0.9590669
211	0xbfa29871	-1.2702771
212	0xbfa7536c	-1.3072333
213	0xbf9ab445	-1.2086264
214	0xbf9405f1	-1.1564313
215	0xbf5251bc	-0.82155967
216	0xbf5e1fbc	-0.8676717
217	0xbf924ec1	-1.1430284
218	0xbf990ef9	-1.1957694
219	0xbfa06f15	-1.25339
220	0xbf4a6ba8	-0.7907052
221	0xbf759ea3	-0.95945185
222	0xbf512338	-0.81694365
223	0xbfa0ba5a	-1.255687
224	0xbfad1c04	-1.3524175
225	0xbfabdedc	-1.3427386
226	0xbf85edf4	-1.0463243
227	0xbf666367	-0.89995426
228	0xbfacf01c	-1.3510776
229	0xbf9671df	-1.1753501
230	0xbf5dc3d6	-0.86626947
231	0xbf8e7432	-1.112921
232	0xbf8da097	-1.1064633
233	0xbfa47740	-1.2848892
234	0xbf80c9f9	-1.0061637
235	0xbfac7eec	-1.3476233
236	0xbf9c7ef9	-1.2226249
237	0xbfae026c	-1.3594489
238	0xbeeaca09	-0.45857266
239	0xbf14ebd9	-0.58172375
240	0xbedbadad	-0.42905942
241	0xbf05fab1	-0.5233565
242	0xbe9eae18	-0.30992198
243	0xbef8e317	-0.48610756
244	0xbed69c16	-0.4191596
245	0xbe9625fd	-0.29325858
246	0xbe8a7602	-0.27043158
247	0xbe7eb924	-0.24875313
248	0xbf215e0a	-0.6303412
249	0xbe830ba8	-0.2559483
250	0xbe99689c	-0.29962623
251	0xbe706cf1	-0.23479058
252	0x3d6ae2b3	0.057345103
253	0xbeb6a81f	-0.3567514
254	0xbedc80cd	-0.43067017
255	0xbe4f0f92	-0.20220783

fc1.bias f4 [150]
0	0xbf825513	-1.0182213
1	0xc033ca2f	-2.8092153
2	0xbf10f41d	-0.5662249
3	0xbf5cc863	-0.86243266
4	0xbf275458	-0.65363073
5	0xbf17fa01	-0.5936585
6	0xbee8adad	-0.45445004
7	0xbeb8d917	-0.36103126
8	0xbea51e5c	-0.32249725
9	0xbef2372a	-0.47307712
10	0xbed67b97	-0.41891167
11	0xbf454b17	-0.77067703
12	0xbee95226	-0.45570487
13	0xbf2283f6	-0.63482606
14	0xbf07e839	-0.5308872
15	0xbf8ccb5b	-1.0999559
16	0xbf6ea262	-0.93216527
17	0xbf0530ec	-0.52027774
18	0x3d66a35e	0.056308143
19	0x3d35c1f3	0.044374418
20	0xbe86c954	-0.26325476
21	0xbe19f374	-0.15034276
22	0xbf23c805	-0.6397708
23	0xbf16b644	-0.58871865
24	0xbf59ef42	-0.85130703
25	0xbf1e438c	-0.6182182
26	0x3d8278ac	0.063706726
27	0xbf243cdd	-0.6415537
28	0xbec1e052	-0.37866455
29	0xc0370fbf	-2.860336
30	0xbf1fc940	-0.6241646
31	0xbdc3e8b1	-0.09565867
32	0x3eb9f791	0.3632169
33	0xbf04ccc8	-0.5187497
34	0xc02dc0ae	-2.7148852
35	0xbf061bbe	-0.5238608
36	0xbef6bedf	-0.48192498
37	0xbefe19e2	-0.49629122
38	0x3d5f5f3f	0.054534193
39	0xbe831f14	-0.25609648
40	0xbe989c92	-0.29806954
41	0xbfe1e4ce	-1.7647951
42	0xbf4e68cf	-0.80628675
43	0x3e01fbb2	0.1269367
44	0xbed6bfd6	-0.41943234
45	0xbeb2ca88	-0.34920144
46	0xbf3e48b7	-0.74329704
47	0xbf714a57	-0.9425406
48	0xbf91250f	-1.1339434
49	0xbf100651	-0.5625964
50	0xbf0c0691	-0.5469752
51	0xbf0638e5	-0.52430564
52	0xbf46383a	-0.77429545
53	0xbebe512c	-0.37171304
54	0xbf17548b	-0.5911338
55	0xbec2103f	-0.3790302
56	0xbf2dce74	-0.6789315
57	0xbf5d0b6b	-0.8634555
58	0xbf0b711e	-0.5446948
59	0xbee6df36	-0.4509217
60	0xbf3d467e	-0.7393569
61	0xc0269c16	-2.6032767
62	0xbeb0ae11	-0.34507802
63	0xc0299f54	-2.6503496
64	0xbee17c54	-0.44040167
65	0xbe723a74	-0.2365511
66	0xbf2ed2a9	-0.6829019
67	0xbf082a43	-0.53189486
68	0xbea2bf1a	-0.31786424
69	0xbd9de301	-0.07709313
70	0xbf39d407	-0.72589153
71	0xbef2f5f1	-0.47453263
72	0xbff05216	-1.8775051
73	0xbcfbc2fc	-0.030732624
74	0xbf1b7fd6	-0.6074194
75	0xbeb68adb	-0.35652813
76	0xbf3dd492	-0.7415248
77	0xbf6adb4d	-0.91740876
78	0xbeb5c970	-0.35505247
79	0xbd7861fe	-0.060640328
80	0xbeb66b95	-0.35628954
81	0xbeda6356	-0.42653912
82	0xbfe2a74d	-1.7707306
83	0x3cb85953	0.02250353
84	0xbdc9b99f	-0.098498575
85	0xbf3ca3df	-0.7368755
86	0xbf09a3e4	-0.537657
87	0x3e34351f	0.17598389
88	0xc0250fde	-2.5790935
89	0xbfd949d4	-1.6975656
90	0xbf5d94b5	-0.86555034
91	0xbedf2ae7	-0.4358742
92	0xbebc0a4e	-0.36726612
93	0xbf031e31	-0.51217943
94	0xbeab004f	-0.33398673
95	0xbf256a36	-0.6461519
96	0x3d5725bb	0.052526217
97	0x3da7f07a	0.08200164
98	0xbf238468	-0.6387391
99	0xbf4a65bd	-0.7906149
100	0x3d68fa96	0.056879602
101	0xbe77f546	-0.24214658
102	0xbf2108ca	-0.62904036
103	0xbf7a8ba2	-0.9786931
104	0xbefa2814	-0.48858702
105	0xbf586b9a	-0.84539187
106	0x39d54ed1	0.0004068525
107	0xbf1649a8	-0.5870614
108	0xc064a299	-3.5724242
109	0xbf4c9d69	-0.7992769
110	0xbf1a68a5	-0.60315925
111	0xbec4fea0	-0.38475513
112	0xc05b4a72	-3.4264188
113	0xbeb6ecd2	-0.35727555
114	0xbe3c4c92	-0.18388584
115	0xbeb9704f	-0.36218497
116	0xbf28a28b	-0.6587302
117	0xbee7d9b4	-0.45283282
118	0xbec56d37	-0.38559887
119	0xbef32d61	-0.4749556
120	0xbf5c2a88	-0.860024
121	0xbf292414	-0.66070676
122	0xbf885187	-1.064988
123	0xc02ddd5d	-2.716636
124	0xbf9cf291	-1.2261525
125	0xbf0afb4b	-0.5428969
126	0xbf358f62	-0.7092191
127	0xbe16f16a	-0.1474053
128	0xbf08d5d7	-0.53451294
129	0xbe71beac	-0.23607892
130	0xbf5958e3	-0.84901255
131	0xbe82eaeb	-0.25569853
132	0xc00be633	-2.1859252
133	0xbeb5482e	-0.3540663
134	0xc063b19a	-3.557715
135	0xbf213537	-0.62971824
136	0xbf2515c4	-0.64486337
137	0x3c6bb23c	0.014385756
138	0xbf2054c8	-0.62629366
139	0xbed9e0c6	-0.425543
140	0xbef93bf8	-0.48678565
141	0xbeb1054b	-0.3457435
142	0xbee26f49	-0.4422553
143	0xbf5e265b	-0.86777276
144	0xbecfb35b	-0.40566525
145	0xbec29da4	-0.38010895
146	0x3c57d1b6	0.013172558
147	0x3da590cf	0.08084261
148	0xbf298164	-0.6621306
149	0xbef1ada4	-0.4720279

fc2.weight f4 [256, 150]
0	0x3d6ccfcd	0.05781536
1	0xbc63689e	-0.013879923
2	0xbd665b00	-0.056239128
3	0x3babe101	0.0052453284
4	0x3d435fd4	0.04769881
5	0xbd9e18e9	-0.07719595
6	0x3d114896	0.035469614
7	0x3d35d5ba	0.04439328
8	0x3d2ebfcc	0.04266338
9	0xbca6e7b7	-0.020374162
10	0xbda29d0a	-0.07940109
11	0x3d887b59	0.06664152
12	0x3d5d9495	0.054096777
13	0xbd31b98a	-0.043389834
14	0xbd93d12a	-0.07217629
15	0x3d9000f8	0.07031435
16	0xbd223021	-0.03959668
17	0xbd8ede18	-0.06975955
18	0x3b041735	0.0020155434
19	0xbd6d3d46	-0.057919763
20	0x3bff86da	0.007798058
21	0x3d528ef9	0.05140588
22	0xbd1f9308	-0.03895858
23	0x3d174fbb	0.03694127
24	0xbd225411	-0.039630953
25	0x3cdd6f28	0.027030542
26	0xbd6b6971	-0.057473604
27	0x3da06e9b	0.07833596
28	0x3cb3df59	0.021957086
29	0xbce144f4	-0.0274987
30	0xbd214ecc	-0.039381787
31	0xbd54b2d2	-0.05192835
32	0xbf357a7c	-0.7089002
33	0xbc4e15a5	-0.012578403
34	0xbd817b76	-0.063223764
35	0x3d9a84da	0.07544871
36	0x3d76244a	0.0600932
37	0xbd67ff45	-0.05663993
38	0xbd9463ae	-0.07245575
39	0xbc607656	-0.0137000885
40	0xbcfbf75b	-0.030757597
41	0xbd356d20	-0.044293523
42	0x3d840f25	0.06448201
43	0xbda44171	-0.080202945
44	0xbd16c751	-0.036811177
45	0x39692e65	0.00022237895
46	0x3cffb693	0.031214988
47	0x3ab36a38	0.0013688272
48	0xbd8df54b	-0.069315515
49	0x3cd7f875	0.02636359
50	0x3d237e89	0.039915595
51	0x3be4b6e4	0.00697981
52	0xbd154b6c	-0.03644888
53	0x3d186706	0.037207626
54	0xbd1944f8	-0.03741929
55	0xbd37c106	-0.044861816
56	0x3d4dc87e	0.050240032
57	0x3d40125b	0.046892505
58	0x3f48574d	0.7825821
59	0xbad4451e	-0.0016194915
60	0xbd307890	-0.043083727
61	0xbd9df729	-0.07713158
62	0xbd7deba7	-0.061992314
63	0x3d0a0e8e	0.033705287
64	0x3ca1a675	0.019732693
65	0xbcec0f68	-0.02881594
66	0xbd643b65	-0.055720706
67	0xbd73f72c	-0.059561893
68	0x3d593bf6	0.0530357
69	0xbd441d5b	-0.047879558
70	0x3d88ede5	0.06686
71	0xbd106ecb	-0.03526191
72	0x3d9fac0a	0.07796486
73	0xbd8127c4	-0.06306413
74	0x3bc032d2	0.0058654333
75	0xbd529177	-0.051408257
76	0x3be7c942	0.0070735523
77	0x3b7d389b	0.0038638476
78	0xbd57a0c1	-0.05264354
79	0xbcb4ce22	-0.022070948
80	0x3d46f5e8	0.04857436
81	0xbc400a87	-0.01172126
82	0xbc930369	-0.017945962
83	0xbd1d8420	-0.038456082
84	0xbd979256	-0.07400958
85	0x3d39e665	0.045385737
86	0xbc42a386	-0.011879807
87	0x3d80fe21	0.06298471
88	0x3c4743f9	0.012162202
89	0x3d7a22bd	0.061068285
90	0xbd67df2c	-0.056609318
91	0x3d94638d	0.0724555
92	0xbd2c2004	-0.04202272
93	0xbd9d398a	-0.0767699
94	0x3d83b077	0.064301424
95	0x3cac072c	0.020999514
96	0x3d19027a	0.037355877
97	0xbcd66afc	-0.026174061
98	0x3d026e72	0.03184361
99	0x3d9a2d25	0.07528142
100	0xbd1c663d	-0.03818344
101	0x3ba75dfc	0.0051076394
102	0xbd9f25dd	-0.07770894
103	0x3d414b7e	0.047191136
104	0xbd21028c	-0.03930907
105	0xbb05e339	-0.0020429625
106	0xbd624404	-0.055240646
107	0xbd688dd4	-0.056775883
108	0xbd16a874	-0.036781743
109	0x3da18846	0.0788732
110	0xbd26d11c	-0.040726766
111	0xbc97464b	-0.018466135
112	0xbd37847b	-0.044804078
113	0x3c296823	0.01033977
114	0xbd02a71f	-0.03189766
115	0x3d019ec8	0.031645566
116	0xbd9a0f66	-0.07522468
117	0x3d2cc5f8	0.042180985
118	0xbd9b76e6	-0.075910375
119	0xb9fe78ac	-0.00048536563
120	0x3ce3d621	0.027812066
121	0x3d5f0145	0.05444457
122	0xbd6cc059	-0.057800625
123	0x3cf22f4d	0.02956357
124	0xbd8145fb	-0.06312176
125	0x3c4d6aea	0.012537697
126	0x3ca7243d	0.020403022
127	0x3d0aa767	0.033851054
128	0xbcf4e2d6	-0.02989332
129	0xbc1785cb	-0.009248207
130	0x3be3a219	0.006946814
131	0x3bfa7036	0.007642771
132	0xbd9d86e1	-0.07691742
133	0xbd474fe0	-0.04866016
134	0xbd9c304a	-0.07626398
135	0xbd46b025	-0.04850783
136	0xbd95fb38	-0.07323307
137	0x3d85cebf	0.06533574
138	0xbd5f700f	-0.054550227
139	0x3d1cdc92	0.03829629
140	0x3d2e4009	0.042541537
141	0x3d8c718a	0.06857593
142	0x3d8f3ab4	0.069936186
143	0x3d7d39e7	0.061822798
144	0xbd488ca2	-0.048962243
145	0x3d0cbb5a	0.03435836
146	0xbd570c41	-0.05250192
147	0x3d3a1509	0.045430217
148	0x3cbc5020	0.022987425
149	0xbd7c9e15	-0.061674196
150	0xbd751065	-0.05983009
151	0x3da238bf	0.0792098
152	0xbeeaed1c	-0.45884025
153	0x3f223e69	0.6337648
154	0xbecb6602	-0.39726263
155	0x3f2a218e	0.6645745
156	0xbee36961	-0.44416335
157	0xbed72d65	-0.4202682
158	0xbef489ec	-0.47761476
159	0xbf0b23d2	-0.5435153
160	0x3f0c92f2	0.5491172
161	0x3f2b0ed3	0.66819495
162	0xbf00a285	-0.50247985
163	0xbeddb930	-0.4330535
164	0xbf24b6b9	-0.6434131
165	0xbd927c67	-0.07152634
166	0xbd8d9e77	-0.069149904
167	0xbf06df5c	-0.5268457
168	0xbefc8170	-0.49317503
169	0x3c12e1b6	0.0089649465
170	0xbd8453a6	-0.06461267
171	0xbb9fbc70	-0.0048747584
172	0xbed53f3c	-0.41649806
173	0x3f16d50d	0.5891884
174	0xbf1b7ae4	-0.6073439
175	0x3f294ac3	0.661297
176	0x3d5f89ca	0.054574765
177	0xbecd3439	-0.40078905
178	0xbf06765d	-0.5252436
179	0xbd8f7a2f	-0.070057265
180	0xbee73329	-0.4515622
181	0x3c88dd6c	0.016707145
182	0xbd8fc30f	-0.07019626
183	0xbf19f753	-0.6014301
184	0xbcbf643a	-0.023363221
185	0x3f24a287	0.643105
186	0xbf259643	-0.64682406
187	0x3f1edcc3	0.62055606
188	0xba820891	-0.0009920766
189	0xbf099b82	-0.5375291
190	0xbef983bf	-0.48733327
191	0x3fd3f44f	1.6558932
192	0x3f26dffe	0.65185535
193	0xbcb83e27	-0.022490574
194	0x3f07c554	0.53035474
195	0xbeeafdfe	-0.45896906
196	0x3f20356a	0.62581503
197	0x3d65b75d	0.056083072
198	0xbd85b8a8	-0.06529361
199	0xbed74d9b	-0.42051396
200	0x3f1e4ed1	0.61839014
201	0xbebf78b7	-0.37396786
202	0xbf04e4ae	-0.5191144
203	0xbf3c33d5	-0.7351659
204	0xbee3347c	-0.4437598
205	0xbece431c	-0.40285575
206	0x3f108d63	0.5646574
207	0x3f2a7a3b	0.6659276
208	0x3d53decc	0.051726148
209	0xbf0a24cf	-0.53962415
210	0xbf025ec5	-0.50925857
211	0x3d232dbe	0.039838545
212	0x3f108383	0.5645067
213	0xbd060706	-0.03272154
214	0x3f173e50	0.59079456
215	0xbee16551	-0.4402261
216	0x3f2686a6	0.6504921
217	0xbf2d2b02	-0.6764375
218	0xbeee55c5	-0.46549812
219	0xbd0bda9c	-0.03414403
220	0x3f0e288c	0.5553062
221	0x3f097e30	0.5370817
222	0x3fd07a9b	1.6287416
223	0xbc049127	-0.008091248
224	0x3f1bfff5	0.60937434
225	0xbef9f3f7	-0.48818943
226	0xbecd2fda	-0.4007557
227	0x3c453c07	0.012038237
228	0xbef722a3	-0.48268613
229	0xbd06a939	-0.032876227
230	0xbf0163ea	-0.5054308
231	0xbed0da13	-0.40791377
232	0x3fb67755	1.4255167
233	0x3d377dfb	0.04479788
234	0xbbc0eb59	-0.0058874306
235	0x3f28fec0	0.6601372
236	0xbee474f4	-0.44620478
237	0x3d97653e	0.07392357
238	0xbc803bfb	-0.0156536
239	0x3ca3a3d4	0.01997558
240	0x3f0588c9	0.5216184
241	0xbf1622aa	-0.58646643
242	0xbf055866	-0.5208801
243	0xbec703e9	-0.3887017
244	0x3f2cc616	0.67489755
245	0xbf0b7124	-0.54469514
246	0xbc1ae714	-0.009454507
247	0x3d79c464	0.06097831
248	0xbecde5dd	-0.40214434
249	0x3f0fc798	0.5616393
250	0x3d6117a8	0.0549542
251	0xbf03a73b	-0.5142705
252	0xbeef8eba	-0.4678858
253	0xbfb1684b	-1.3859953
254	0xbefca18d	-0.49342003
255	0xbf1f2bec	-0.62176394

fc2.bias f4 [256]
0	0xbf182365	-0.5942901
1	0xbede1e18	-0.43382335
2	0xbf833d3a	-1.025306
3	0xbfea8920	-1.8323097
4	0xbf11c53b	-0.56941575
5	0x3d9a0e2e	0.07522236
6	0xbf0e892b	-0.5567805
7	0xbeffe029	-0.49975708
8	0xbf8a19c3	-1.0789112
9	0xc03d779b	-2.9604251
10	0xbf619521	-0.8811818
11	0xbfe45184	-1.7837377
12	0xbf106c61	-0.56415373
13	0xc0330e2c	-2.79774
14	0xbf1c1b32	-0.60978997
15	0xbf7c74db	-0.9861581
16	0xbf0d5ad8	-0.5521674
17	0xbf065dad	-0.5248669
18	0xbfa6d362	-1.3033259
19	0xbe974812	-0.29547173
20	0xbf51e0b3	-0.8198349
21	0xbf7a92a4	-0.97880006
22	0xbfc880b4	-1.5664277
23	0xbf8cd46f	-1.100233
24	0xbf6d9093	-0.9279873
25	0xbff4eca0	-1.9134712
26	0xbef347ea	-0.47515804
27	0xbecf1c82	-0.40451437
28	0xbf49011d	-0.78517324
29	0xbf175103	-0.5910799
30	0xbf94e7d6	-1.1633251
31	0xbeb45698	-0.35222316
32	0xbf9a8433	-1.2071594
33	0xc0556e44	-3.334855
34	0xbe162682	-0.14663127
35	0x3df5b4d0	0.11997378
36	0xbfb674e9	-1.4254428
37	0xbf8d15ea	-1.1022313
38	0xbf430b9c	-0.7618959
39	0xbf5f82f4	-0.87309194
40	0xbeb001fb	-0.3437651
41	0xbf12f99a	-0.5741211
42	0xbe72e5fb	-0.23720543
43	0xbf10135a	-0.5627953
44	0x404fc39d	3.2463143
45	0xbed0a81b	-0.40753254
46	0xbf7f9e48	-0.99850893
47	0xbf30c1f3	-0.69045943
48	0xbefdb244	-0.49550068
49	0xbef7ea83	-0.48421106
50	0xbfc72ebb	-1.5561136
51	0x3f6648ed	0.89955026
52	0xbe5b8708	-0.21438229
53	0xbee65fd8	-0.44994998
54	0xbf4f81ed	-0.81057626
55	0xbf14b92d	-0.58095056
56	0xbed72ac5	-0.42024818
57	0xbfdd2577	-1.7277058
58	0xbfe1334f	-1.7593783
59	0xbf1de9e2	-0.61685
60	0xbf13c92c	-0.5772884
61	0xbf0f3ce6	-0.559523
62	0xbf8371c7	-1.0269097
63	0xbecf4381	-0.4048119
64	0xbf11e3b8	-0.56988096
65	0xbe5e6a1f	-0.2172017
66	0x3f1391c0	0.5764427
67	0xbf137668	-0.5760255
68	0xbed6c70a	-0.4194873
69	0xbfbec839	-1.4904853
70	0xbeec2940	-0.4612522
71	0xbf9e2bc8	-1.2357111
72	0xbf6730c8	-0.9030881
73	0xbf1626b6	-0.5865282
74	0xbf2fbad1	-0.68644434
75	0xbf34dbaf	-0.7064771
76	0xbf012842	-0.50452054
77	0xbec89a00	-0.39179993
78	0xbf80ca51	-1.0061742
79	0xbf9d6d4a	-1.2298977
80	0xbf55a1de	-0.83450115
81	0xbf2748c8	-0.6534543
82	0xbf21c82b	-0.6319606
83	0xbf686fdb	-0.9079568
84	0xbf91c2b4	-1.1387544
85	0xbfb586a1	-1.418171
86	0xbeee508d	-0.4654583
87	0x3eafb89d	0.34320536
88	0xbf7f0c4b	-0.9962813
89	0xbf7db15a	-0.9909874
90	0xbf01ac46	-0.50653493
91	0xbf1767d4	-0.59142804
92	0xbef08ba0	-0.46981525
93	0xbf91e6e0	-1.1398582
94	0xbf0a9fc0	-0.5415001
95	0xbf1d0d54	-0.6134846
96	0xbee6a6b1	-0.4504905
97	0xbeea51e2	-0.45765597
98	0xbf63fb0a	-0.8905493
99	0xbf15ac5a	-0.5846611
100	0x3f83adf8	1.0287466
101	0xbf7d0a36	-0.98843706
102	0xbf36947c	-0.7132032
103	0xbf020aa3	-0.5079748
104	0xbf041166	-0.5158905
105	0xbfeb7699	-1.8395568
106	0xbf97856a	-1.183759
107	0xbf316d35	-0.6930726
108	0xbf1e7e8c	-0.61911845
109	0xbf3e9e86	-0.7446064
110	0xbee40cd1	-0.44541028
111	0xbec91129	-0.39270905
112	0xbfe2dc73	-1.7723526
113	0xbfa31931	-1.2742063
114	0xbeced719	-0.4039848
115	0xbf515e0c	-0.8178413
116	0xbf135c86	-0.57563055
117	0xbefe1267	-0.49623415
118	0xbf181d64	-0.59419847
119	0xbf15c1c4	-0.5849879
120	0xc04f3d5c	-3.23812
121	0xbf0cd519	-0.5501266
122	0xbf60c65c	-0.8780267
123	0xbfc11d68	-1.5087099
124	0xbf0e8518	-0.55671835
125	0xbf28d0e4	-0.6594374
126	0xbfca44dd	-1.5802265
127	0xbf0b12eb	-0.5432574
128	0xbedd1fb1	-0.4318824
129	0xbf159e84	-0.58445
130	0xbecf8070	-0.40527678
131	0xbf492d4c	-0.7858474
132	0xbe1347e5	-0.14382894
133	0xbf9781b5	-1.1836458
134	0xbf00f4f2	-0.50373757
135	0xbf09d236	-0.5383638
136	0xbeefbb07	-0.46822378
137	0xbf8c4788	-1.095933
138	0xbf219f9f	-0.6313419
139	0xbf973803	-1.1813968
140	0xbf22fd25	-0.6366752
141	0xbe1acae8	-0.15116465
142	0xbf0da394	-0.55327725
143	0xbfec2333	-1.8448242
144	0xbf0b81e5	-0.5449508
145	0xbf10f90a	-0.56630003
146	0xbf4c42a3	-0.7978918
147	0xbeff1717	-0.49822304
148	0xbe71a80c	-0.23599261
149	0xbf5fdc6c	-0.8744571
150	0xbee7a2ec	-0.45241487
151	0xbefe17f6	-0.49627656
152	0xbee92269	-0.45534065
153	0xbfe97bb4	-1.8240876
154	0xbf11f275	-0.57010585
155	0xbf72c65d	-0.9483393
156	0xbf103f6d	-0.5634678
157	0x3d1d6642	0.0384276
158	0xbee4457d	-0.44584265
159	0xbee5046c	-0.44729936
160	0xbf1596ee	-0.58433425
161	0xbfd5a5d6	-1.6691234
162	0xbf0bf4bd	-0.54670316
163	0xbf16f4c9	-0.5896726
164	0x3ed9d38a	0.42544204
165	0xbf48d814	-0.7845471
166	0xbf14183a	-0.57849467
167	0xbfc24272	-1.5176528
168	0x3d8d566b	0.069012485
169	0xc01bd944	-2.4351358
170	0xbf0a2198	-0.5395751
171	0xbf6298ca	-0.8851439
172	0xbf6a48e6	-0.91517484
173	0xbf18694b	-0.59535664
174	0x3f0a8512	0.541093
175	0xbec69b5d	-0.38790408
176	0xbf3ee011	-0.7456065
177	0xbf2567a9	-0.646113
178	0xbe816db3	-0.25279006
179	0x3e5f9676	0.2183474
180	0xbf71281d	-0.94201833
181	0xbfe4af63	-1.7866024
182	0xbecc87be	-0.39947313
183	0xbf250e12	-0.64474595
184	0xbf78cc09	-0.9718633
185	0xbf431838	-0.7620883
186	0xbf02f333	-0.5115234
187	0xbedb8eba	-0.4288233
188	0xbef0a3cd	-0.4699997
189	0xbf77e889	-0.96839195
190	0xbf35f1fe	-0.71072376
191	0xbf17147b	-0.59015626
192	0x3fdab3f1	1.7086164
193	0x3f2c99e4	0.6742232
194	0xbf139a93	-0.57657737
195	0xbeed79f6	-0.4638211
196	0xbefef0d9	-0.49793127
197	0xbf05a7d0	-0.52209187
198	0xbf23b2f6	-0.6394495
199	0xbf0cfeb6	-0.5507616
200	0xbd8957e3	-0.06706216
201	0xbf10a4ee	-0.5650166
202	0xbf523f65	-0.8212798
203	0xbfd06000	-1.6279297
204	0x3ec4e096	0.38452595
205	0xc063dee6	-3.5604796
206	0xbff0b11b	-1.8804048
207	0xbf2bbc9d	-0.67084676
208	0xbf5f8628	-0.8731408
209	0xbef2f728	-0.4745419
210	0xbfbc6215	-1.4717432
211	0xbfb9bc9c	-1.4510684
212	0xbf19ffda	-0.60156024
213	0xbfe0298e	-1.7512681
214	0xbf004b0b	-0.50114506
215	0xc00ba46d	-2.1819108
216	0xc027cffc	-2.6220694
217	0xbf17c018	-0.59277487
218	0xbf9009ea	-1.1253026
219	0xbfb8c5b6	-1.4435337
220	0xbf80b024	-1.0053754
221	0xbf20d408	-0.62823534
222	0xbed482c5	-0.4150602
223	0xbf071eea	-0.52781546
224	0xbeec0a5d	-0.46101657
225	0xbf762d98	-0.9616332
226	0xbeedb235	-0.46425024
227	0xbf5ac9fd	-0.8546446
228	0xc00e183a	-2.2202287
229	0xbeecfebd	-0.462881
230	0xc062cfc8	-3.543932
231	0xbeffa97d	-0.49933997
232	0xbf5c5a18	-0.8607497
233	0xbf5edd6d	-0.8705662
234	0xbfe9cf7d	-1.8266445
235	0xbf4f628b	-0.8100974
236	0xbf1a15fb	-0.6018979
237	0xbf082596	-0.5318235
238	0xbf577f02	-0.84178174
239	0xbe01f2fd	-0.12690349
240	0xbecb17c5	-0.39666572
241	0xbedff171	-0.43738893
242	0xbf618fc2	-0.8810998
243	0xbf1ba6b8	-0.6080127
244	0xbfdd23a3	-1.72765
245	0xbf12d9a1	-0.57363325
246	0xbfc8b01d	-1.5678746
247	0xbfa91ce3	-1.321194
248	0x3f2f7204	0.6853335
249	0xbec631fe	-0.38710016
250	0xbf537766	-0.8260406
251	0xbef64b99	-0.4810455
252	0xbecbe840	-0.3982563
253	0xbf05fe2e	-0.5234097
254	0xbf24927d	-0.64286023
255	0xbfc36881	-1.5266267

fc3.weight f4 [5, 256]
0	0xbeaefdc8	-0.34177995
1	0x3f358ff9	0.7092281
2	0xbf23819e	-0.63869655
3	0xbf2c539b	-0.6731507
4	0x3f180268	0.5937867
5	0x3e9d2bb2	0.306974
6	0x3f16953e	0.58821476
7	0x3af84440	0.0018941239
8	0x3d8f599a	0.06999512
9	0x404187f8	3.0239239
10	0x3ee4bc72	0.44675022
11	0x3f04385b	0.5164849
12	0x3f0b2ea6	0.54368055
13	0xbfb636b8	-1.4235449
14	0x3f1ceb36	0.61296403
15	0xbe3609d6	-0.1777719
16	0x3f291497	0.6604704
17	0x3f244aff	0.64176935
18	0xbd41c42c	-0.047306225
19	0x3f4554e2	0.77082646
20	0xbf03bbd7	-0.51458496
21	0xbe7b60ee	-0.24548694
22	0x3f207b8f	0.62688535
23	0x3f27d1a0	0.6555424
24	0x3f0fb6f2	0.5613853
25	0x3f274c12	0.6535045
26	0x3f38cc5b	0.7218682
27	0x3f18ef3f	0.5974006
28	0xbe93beca	-0.28856498
29	0x3f35a8c2	0.7096063
30	0xbf8cf323	-1.10117
31	0x3f357c34	0.70892644
32	0x3f18608d	0.59522325
33	0x404fa0e6	3.2441955
34	0xbeae8b26	-0.34090537
35	0x3ef17d50	0.47165918
36	0x3ef4e974	0.4783436
37	0x3f1a5a28	0.6029382
38	0xbefda4f9	-0.49539927
39	0x3f1b0129	0.60548645
40	0xbe82e7b0	-0.2556739
41	0x3f286794	0.6578305
42	0x3d7a927f	0.061174866
43	0xbd35c996	-0.0443817
44	0x403a1d96	2.9080558
45	0x3e74dd08	0.23912442
46	0xbe90fff2	-0.2832027
47	0x3d9cc8bc	0.076554745
48	0x3f373ab6	0.7157396
49	0x3f33382e	0.700076
50	0x4027749e	2.6164927
51	0x402d1715	2.7045338
52	0x3f221cb1	0.6332503
53	0x3f2dd49d	0.6790255
54	0xbe893d45	-0.26804557
55	0x3f2c9358	0.6741233
56	0x3f2eb31d	0.68242055
57	0xbe97bacc	-0.29634702
58	0x3f0ef3ba	0.5584065
59	0x3f35ab33	0.70964354
60	0x3efccdfd	0.49375907
61	0xbf0b6a31	-0.5445891
62	0xbe8b640d	-0.2722477
63	0x3f2f2d1a	0.68428195
64	0x3f3770a0	0.7165623
65	0xbeb65cf1	-0.35617784
66	0x3e216c49	0.15763964
67	0x3f004cae	0.50117004
68	0x3f34e451	0.70660883
69	0x3f8e2939	1.110633
70	0x3f241db0	0.641078
71	0x3cf59edc	0.029982977
72	0xbe5ab8e4	-0.21359593
73	0x3f3278ae	0.6971539
74	0x3f211923	0.6292898
75	0xbe427826	-0.18991145
76	0x3f1089db	0.5646035
77	0x3f7b1a18	0.9808669
78	0xbe90a207	-0.28248617
79	0xbd61286c	-0.05497019
80	0x3f0bb963	0.5457975
81	0x3efc1478	0.49234366
82	0x3f0cfce2	0.5507337
83	0x3f34e259	0.7065788
84	0x3f1d86b3	0.6153366
85	0x3f0d950e	0.55305564
86	0x3f19d7a9	0.60094696
87	0x3c990990	0.018681318
88	0xbe4a4adc	-0.19755119
89	0x3f34e223	0.7065756
90	0x3f1f0194	0.62111783
91	0x3f2522b0	0.64506054
92	0x3f1fec96	0.62470376
93	0x3f871c68	1.0555544
94	0x3eaaaf1f	0.33336732
95	0x3f217bc2	0.63079464
96	0x3f36b2cf	0.7136659
97	0x3f1a4fc3	0.60277957
98	0xbefaa09f	-0.4895067
99	0x3f0534b9	0.52033573
100	0xbe7506b9	-0.23928346
101	0x3e4386c4	0.19094378
102	0x3f110dcd	0.56661683
103	0xbeeaccfc	-0.45859516
104	0x3f1d0433	0.6133453
105	0x3f1388d7	0.57630676
106	0x3cf3e9bc	0.02977454
107	0xbe52f962	-0.20602944
108	0x3d4fec04	0.05076219
109	0xbfbbd5cb	-1.467462
110	0xbefe0890	-0.49615908
111	0x3f1ce255	0.61282855
112	0x3d63031a	0.05542288
113	0x3fece625	1.8507735
114	0x3f44d8b3	0.76893157
115	0x3eba8868	0.36432195
116	0x3f171754	0.5901997
117	0x3f3b4481	0.73151404
118	0x3f098373	0.537162
119	0xbf0498ad	-0.51795465
120	0x3f1a3c32	0.602481
121	0x3f338b68	0.7013459
122	0x3f1a9b1a	0.60392916
123	0xbf02f73c	-0.511585
124	0x3f13bb1b	0.57707375
125	0x3f1d2551	0.61385065
126	0x3fbe2c31	1.4857236
127	0x3f099bf3	0.53753585
128	0x3f28afbc	0.6589315
129	0x3f13dace	0.57755744
130	0x3f2fa906	0.68617284
131	0xbe95a0c4	-0.29224217
132	0x3dab7e24	0.08373669
133	0xbf8a9e63	-1.0829586
134	0x3f1b4325	0.6064933
135	0x3f30271c	0.68809676
136	0x3f1cf247	0.61307186
137	0xbca6ebf4	-0.020376183
138	0x3f2c23ee	0.67242324
139	0x3fe398b3	1.7780975
140	0x3f0c93cf	0.5491304
141	0x3f2444cf	0.64167494
142	0x3f24235e	0.64116466
143	0xbf162af7	-0.5865931
144	0x3f07f3c6	0.53106344
145	0x3f00a343	0.5024912
146	0xbe9eef29	-0.3104184
147	0x3f22ff13	0.6367046
148	0x3f23c255	0.639684
149	0xbe5588c5	-0.20852955
150	0x3f384f8e	0.7199639
151	0x3f2f1cec	0.68403506
152	0x3f324f3f	0.6965217
153	0xbed5a84a	-0.41729957
154	0x3f3052cd	0.68876344
155	0x3ea442c8	0.320822
156	0x3f104e4d	0.5636948
157	0xbcbee537	-0.023302658
158	0x3f272701	0.6529389
159	0xbe9b5f6d	-0.30346242
160	0xbef30e07	-0.4747164
161	0x3f0e7859	0.55652386
162	0x3f0f2d92	0.5592891
163	0x3f1e37bb	0.6180379
164	0x3dc6e3a3	0.09711387
165	0x3f11589c	0.5677583
166	0x3f07cfda	0.5305153
167	0xbf24c201	-0.64358526
168	0xb9b66458	-0.00034788507
169	0x3d131875	0.035911996
170	0x3f22ccf3	0.6359398
171	0x3eecd9bc	0.46259868
172	0xbe9113a5	-0.283353
173	0x3f1624cc	0.586499
174	0x40319f86	2.7753615
175	0x3f285d1a	0.6576706
176	0x3fd27868	1.6442995
177	0x3f1886a4	0.59580445
178	0x3f0f1fe0	0.5590801
179	0x3fde41c3	1.7363819
180	0xbe94037c	-0.28908908
181	0x3f205dbb	0.6264302
182	0x3f3123a5	0.69195014
183	0x3f0c434d	0.5479019
184	0xbe5a7d0f	-0.21336769
185	0x3f1a2b7d	0.6022261
186	0x3f2506ff	0.644638
187	0x3f28fc5c	0.6601007
188	0x3f0e13ab	0.5549876
189	0x3f1f9c25	0.6234763
190	0xbeb16ca0	-0.34653187
191	0x3f06413b	0.52443284
192	0x3efae980	0.4900627
193	0x402d1b29	2.7047827
194	0x3f32e1c8	0.69875765
195	0x3f32cb69	0.6984163
196	0xbed970f9	-0.42469004
197	0x3f1ac8b4	0.604625
198	0x3f0a7998	0.5409179
199	0x3f11ecdc	0.57002044
200	0xbed5c222	-0.41749674
201	0x3f1c9f16	0.61180246
202	0x3e995884	0.29950345
203	0xbf00bb5f	-0.50285906
204	0xbbe1bcbf	-0.0068889554
205	0x40663cad	3.5974534
206	0xbe5e78d5	-0.21725781
207	0x3f102ef5	0.5632165
208	0xbe44a364	-0.19202954
209	0x3f1d7d50	0.61519337
210	0x3f1b23c7	0.60601467
211	0x3fd65330	1.6744137
212	0x3f192940	0.5982857
213	0xbefc999d	-0.49335948
214	0x3ca4d61c	0.020121627
215	0x3fc45157	1.5337323
216	0xbe9dc7bc	-0.30816448
217	0x3f1f2a00	0.6217346
218	0x3fcd2f66	1.603009
219	0x3f3b2ba4	0.73113465
220	0x3ea1d195	0.3160521
221	0x3f0d3724	0.5516226
222	0x3f397ac4	0.7245295
223	0xbe8ac59b	-0.27103886
224	0x3ffc21de	1.9697835
225	0xbe942300	-0.28932953
226	0x3f21422f	0.62991613
227	0x3f3226b2	0.69590294
228	0x3f8c49bd	1.0960003
229	0x3f3587bd	0.70910245
230	0x40133ee8	2.3007145
231	0x3f1d2043	0.6137735
232	0xbe8eadb4	-0.278669
233	0x3f3d7fc0	0.74023056
234	0x3f17987b	0.5921704
235	0x3e853cb9	0.2602289
236	0x3f0f54f6	0.55989015
237	0x3f3899a2	0.72109425
238	0xbe522682	-0.20522502
239	0x3e53f0f7	0.2069739
240	0x3f35e8ed	0.7105854
241	0x3f24854a	0.6426588
242	0x3ff8e1dc	1.9443927
243	0x3f151627	0.58236927
244	0xbf22e6f5	-0.6363366
245	0xbefc0459	-0.49222067
246	0xbe4ce5e5	-0.20009573
247	0x3f14fd6c	0.5819919
248	0x40248618	2.5706844
249	0x3f33caf5	0.7023156
250	0x3e8cd968	0.27509618
251	0x3f3976a9	0.72446686
252	0x3f37e55d	0.71834356
253	0x3f28451f	0.6573047
254	0xbf11901d	-0.56860524
255	0x3ed0af77	0.4075887

fc3.bias f4 [5]
0	0x3f8d72e1	1.1050683
1	0x3f93abed	1.1536843
2	0x3f8b4293	1.0879692
3	0x3f87efd4	1.0620065
4	0x3f870f83	1.0551609
